<?xml version="1.0"?>
<net name="main_graph" version="11">
	<layers>
		<layer id="0" name="pixel_values" type="Parameter" version="opset1">
			<data shape="1,3,224,224" element_type="f32" />
			<output>
				<port id="0" precision="FP32" names="pixel_values">
					<dim>1</dim>
					<dim>3</dim>
					<dim>224</dim>
					<dim>224</dim>
				</port>
			</output>
		</layer>
		<layer id="1" name="Constant_31450" type="Const" version="opset1">
			<data element_type="f32" shape="1, 1, 384" offset="0" size="1536" />
			<output>
				<port id="0" precision="FP32">
					<dim>1</dim>
					<dim>1</dim>
					<dim>384</dim>
				</port>
			</output>
		</layer>
		<layer id="2" name="Constant_31449" type="Const" version="opset1">
			<data element_type="f32" shape="1, 1, 1536" offset="1536" size="6144" />
			<output>
				<port id="0" precision="FP32">
					<dim>1</dim>
					<dim>1</dim>
					<dim>1536</dim>
				</port>
			</output>
		</layer>
		<layer id="3" name="Constant_31446" type="Const" version="opset1">
			<data element_type="f32" shape="1, 1, 384" offset="7680" size="1536" />
			<output>
				<port id="0" precision="FP32">
					<dim>1</dim>
					<dim>1</dim>
					<dim>384</dim>
				</port>
			</output>
		</layer>
		<layer id="4" name="Constant_31443" type="Const" version="opset1">
			<data element_type="f32" shape="1, 1, 384" offset="9216" size="1536" />
			<output>
				<port id="0" precision="FP32">
					<dim>1</dim>
					<dim>1</dim>
					<dim>384</dim>
				</port>
			</output>
		</layer>
		<layer id="5" name="Constant_31440" type="Const" version="opset1">
			<data element_type="f32" shape="1, 1, 384" offset="10752" size="1536" />
			<output>
				<port id="0" precision="FP32">
					<dim>1</dim>
					<dim>1</dim>
					<dim>384</dim>
				</port>
			</output>
		</layer>
		<layer id="6" name="Constant_31439" type="Const" version="opset1">
			<data element_type="f32" shape="1, 1, 1536" offset="12288" size="6144" />
			<output>
				<port id="0" precision="FP32">
					<dim>1</dim>
					<dim>1</dim>
					<dim>1536</dim>
				</port>
			</output>
		</layer>
		<layer id="7" name="Constant_31436" type="Const" version="opset1">
			<data element_type="f32" shape="1, 1, 384" offset="18432" size="1536" />
			<output>
				<port id="0" precision="FP32">
					<dim>1</dim>
					<dim>1</dim>
					<dim>384</dim>
				</port>
			</output>
		</layer>
		<layer id="8" name="Constant_31433" type="Const" version="opset1">
			<data element_type="f32" shape="1, 1, 384" offset="19968" size="1536" />
			<output>
				<port id="0" precision="FP32">
					<dim>1</dim>
					<dim>1</dim>
					<dim>384</dim>
				</port>
			</output>
		</layer>
		<layer id="9" name="Constant_31430" type="Const" version="opset1">
			<data element_type="f32" shape="1, 1, 384" offset="21504" size="1536" />
			<output>
				<port id="0" precision="FP32">
					<dim>1</dim>
					<dim>1</dim>
					<dim>384</dim>
				</port>
			</output>
		</layer>
		<layer id="10" name="Constant_31429" type="Const" version="opset1">
			<data element_type="f32" shape="1, 1, 1536" offset="23040" size="6144" />
			<output>
				<port id="0" precision="FP32">
					<dim>1</dim>
					<dim>1</dim>
					<dim>1536</dim>
				</port>
			</output>
		</layer>
		<layer id="11" name="Constant_31426" type="Const" version="opset1">
			<data element_type="f32" shape="1, 1, 384" offset="29184" size="1536" />
			<output>
				<port id="0" precision="FP32">
					<dim>1</dim>
					<dim>1</dim>
					<dim>384</dim>
				</port>
			</output>
		</layer>
		<layer id="12" name="Constant_31423" type="Const" version="opset1">
			<data element_type="f32" shape="1, 1, 384" offset="30720" size="1536" />
			<output>
				<port id="0" precision="FP32">
					<dim>1</dim>
					<dim>1</dim>
					<dim>384</dim>
				</port>
			</output>
		</layer>
		<layer id="13" name="Constant_31420" type="Const" version="opset1">
			<data element_type="f32" shape="1, 1, 384" offset="32256" size="1536" />
			<output>
				<port id="0" precision="FP32">
					<dim>1</dim>
					<dim>1</dim>
					<dim>384</dim>
				</port>
			</output>
		</layer>
		<layer id="14" name="Constant_31419" type="Const" version="opset1">
			<data element_type="f32" shape="1, 1, 1536" offset="33792" size="6144" />
			<output>
				<port id="0" precision="FP32">
					<dim>1</dim>
					<dim>1</dim>
					<dim>1536</dim>
				</port>
			</output>
		</layer>
		<layer id="15" name="Constant_31416" type="Const" version="opset1">
			<data element_type="f32" shape="1, 1, 384" offset="39936" size="1536" />
			<output>
				<port id="0" precision="FP32">
					<dim>1</dim>
					<dim>1</dim>
					<dim>384</dim>
				</port>
			</output>
		</layer>
		<layer id="16" name="Constant_31413" type="Const" version="opset1">
			<data element_type="f32" shape="1, 1, 384" offset="41472" size="1536" />
			<output>
				<port id="0" precision="FP32">
					<dim>1</dim>
					<dim>1</dim>
					<dim>384</dim>
				</port>
			</output>
		</layer>
		<layer id="17" name="Constant_31410" type="Const" version="opset1">
			<data element_type="f32" shape="1, 1, 384" offset="43008" size="1536" />
			<output>
				<port id="0" precision="FP32">
					<dim>1</dim>
					<dim>1</dim>
					<dim>384</dim>
				</port>
			</output>
		</layer>
		<layer id="18" name="Constant_31409" type="Const" version="opset1">
			<data element_type="f32" shape="1, 1, 1536" offset="44544" size="6144" />
			<output>
				<port id="0" precision="FP32">
					<dim>1</dim>
					<dim>1</dim>
					<dim>1536</dim>
				</port>
			</output>
		</layer>
		<layer id="19" name="Constant_31406" type="Const" version="opset1">
			<data element_type="f32" shape="1, 1, 384" offset="50688" size="1536" />
			<output>
				<port id="0" precision="FP32">
					<dim>1</dim>
					<dim>1</dim>
					<dim>384</dim>
				</port>
			</output>
		</layer>
		<layer id="20" name="Constant_31403" type="Const" version="opset1">
			<data element_type="f32" shape="1, 1, 384" offset="52224" size="1536" />
			<output>
				<port id="0" precision="FP32">
					<dim>1</dim>
					<dim>1</dim>
					<dim>384</dim>
				</port>
			</output>
		</layer>
		<layer id="21" name="Constant_31400" type="Const" version="opset1">
			<data element_type="f32" shape="1, 1, 384" offset="53760" size="1536" />
			<output>
				<port id="0" precision="FP32">
					<dim>1</dim>
					<dim>1</dim>
					<dim>384</dim>
				</port>
			</output>
		</layer>
		<layer id="22" name="Constant_31399" type="Const" version="opset1">
			<data element_type="f32" shape="1, 1, 1536" offset="55296" size="6144" />
			<output>
				<port id="0" precision="FP32">
					<dim>1</dim>
					<dim>1</dim>
					<dim>1536</dim>
				</port>
			</output>
		</layer>
		<layer id="23" name="Constant_31396" type="Const" version="opset1">
			<data element_type="f32" shape="1, 1, 384" offset="61440" size="1536" />
			<output>
				<port id="0" precision="FP32">
					<dim>1</dim>
					<dim>1</dim>
					<dim>384</dim>
				</port>
			</output>
		</layer>
		<layer id="24" name="Constant_31393" type="Const" version="opset1">
			<data element_type="f32" shape="1, 1, 384" offset="62976" size="1536" />
			<output>
				<port id="0" precision="FP32">
					<dim>1</dim>
					<dim>1</dim>
					<dim>384</dim>
				</port>
			</output>
		</layer>
		<layer id="25" name="Constant_31390" type="Const" version="opset1">
			<data element_type="f32" shape="1, 1, 384" offset="64512" size="1536" />
			<output>
				<port id="0" precision="FP32">
					<dim>1</dim>
					<dim>1</dim>
					<dim>384</dim>
				</port>
			</output>
		</layer>
		<layer id="26" name="Constant_31389" type="Const" version="opset1">
			<data element_type="f32" shape="1, 1, 1536" offset="66048" size="6144" />
			<output>
				<port id="0" precision="FP32">
					<dim>1</dim>
					<dim>1</dim>
					<dim>1536</dim>
				</port>
			</output>
		</layer>
		<layer id="27" name="Constant_31386" type="Const" version="opset1">
			<data element_type="f32" shape="1, 1, 384" offset="72192" size="1536" />
			<output>
				<port id="0" precision="FP32">
					<dim>1</dim>
					<dim>1</dim>
					<dim>384</dim>
				</port>
			</output>
		</layer>
		<layer id="28" name="Constant_31383" type="Const" version="opset1">
			<data element_type="f32" shape="1, 1, 384" offset="73728" size="1536" />
			<output>
				<port id="0" precision="FP32">
					<dim>1</dim>
					<dim>1</dim>
					<dim>384</dim>
				</port>
			</output>
		</layer>
		<layer id="29" name="Constant_31380" type="Const" version="opset1">
			<data element_type="f32" shape="1, 1, 384" offset="75264" size="1536" />
			<output>
				<port id="0" precision="FP32">
					<dim>1</dim>
					<dim>1</dim>
					<dim>384</dim>
				</port>
			</output>
		</layer>
		<layer id="30" name="Constant_31379" type="Const" version="opset1">
			<data element_type="f32" shape="1, 1, 1536" offset="76800" size="6144" />
			<output>
				<port id="0" precision="FP32">
					<dim>1</dim>
					<dim>1</dim>
					<dim>1536</dim>
				</port>
			</output>
		</layer>
		<layer id="31" name="Constant_31376" type="Const" version="opset1">
			<data element_type="f32" shape="1, 1, 384" offset="82944" size="1536" />
			<output>
				<port id="0" precision="FP32">
					<dim>1</dim>
					<dim>1</dim>
					<dim>384</dim>
				</port>
			</output>
		</layer>
		<layer id="32" name="Constant_31373" type="Const" version="opset1">
			<data element_type="f32" shape="1, 1, 384" offset="84480" size="1536" />
			<output>
				<port id="0" precision="FP32">
					<dim>1</dim>
					<dim>1</dim>
					<dim>384</dim>
				</port>
			</output>
		</layer>
		<layer id="33" name="Constant_31370" type="Const" version="opset1">
			<data element_type="f32" shape="1, 1, 384" offset="86016" size="1536" />
			<output>
				<port id="0" precision="FP32">
					<dim>1</dim>
					<dim>1</dim>
					<dim>384</dim>
				</port>
			</output>
		</layer>
		<layer id="34" name="Constant_31369" type="Const" version="opset1">
			<data element_type="f32" shape="1, 1, 1536" offset="87552" size="6144" />
			<output>
				<port id="0" precision="FP32">
					<dim>1</dim>
					<dim>1</dim>
					<dim>1536</dim>
				</port>
			</output>
		</layer>
		<layer id="35" name="Constant_31366" type="Const" version="opset1">
			<data element_type="f32" shape="1, 1, 384" offset="93696" size="1536" />
			<output>
				<port id="0" precision="FP32">
					<dim>1</dim>
					<dim>1</dim>
					<dim>384</dim>
				</port>
			</output>
		</layer>
		<layer id="36" name="Constant_31363" type="Const" version="opset1">
			<data element_type="f32" shape="1, 1, 384" offset="95232" size="1536" />
			<output>
				<port id="0" precision="FP32">
					<dim>1</dim>
					<dim>1</dim>
					<dim>384</dim>
				</port>
			</output>
		</layer>
		<layer id="37" name="Constant_31360" type="Const" version="opset1">
			<data element_type="f32" shape="1, 1, 384" offset="96768" size="1536" />
			<output>
				<port id="0" precision="FP32">
					<dim>1</dim>
					<dim>1</dim>
					<dim>384</dim>
				</port>
			</output>
		</layer>
		<layer id="38" name="Constant_31359" type="Const" version="opset1">
			<data element_type="f32" shape="1, 1, 1536" offset="98304" size="6144" />
			<output>
				<port id="0" precision="FP32">
					<dim>1</dim>
					<dim>1</dim>
					<dim>1536</dim>
				</port>
			</output>
		</layer>
		<layer id="39" name="Constant_31356" type="Const" version="opset1">
			<data element_type="f32" shape="1, 1, 384" offset="104448" size="1536" />
			<output>
				<port id="0" precision="FP32">
					<dim>1</dim>
					<dim>1</dim>
					<dim>384</dim>
				</port>
			</output>
		</layer>
		<layer id="40" name="Constant_31353" type="Const" version="opset1">
			<data element_type="f32" shape="1, 1, 384" offset="105984" size="1536" />
			<output>
				<port id="0" precision="FP32">
					<dim>1</dim>
					<dim>1</dim>
					<dim>384</dim>
				</port>
			</output>
		</layer>
		<layer id="41" name="Constant_31350" type="Const" version="opset1">
			<data element_type="f32" shape="1, 1, 384" offset="107520" size="1536" />
			<output>
				<port id="0" precision="FP32">
					<dim>1</dim>
					<dim>1</dim>
					<dim>384</dim>
				</port>
			</output>
		</layer>
		<layer id="42" name="Constant_31349" type="Const" version="opset1">
			<data element_type="f32" shape="1, 1, 1536" offset="109056" size="6144" />
			<output>
				<port id="0" precision="FP32">
					<dim>1</dim>
					<dim>1</dim>
					<dim>1536</dim>
				</port>
			</output>
		</layer>
		<layer id="43" name="Constant_31346" type="Const" version="opset1">
			<data element_type="f32" shape="1, 1, 384" offset="115200" size="1536" />
			<output>
				<port id="0" precision="FP32">
					<dim>1</dim>
					<dim>1</dim>
					<dim>384</dim>
				</port>
			</output>
		</layer>
		<layer id="44" name="Constant_31343" type="Const" version="opset1">
			<data element_type="f32" shape="1, 1, 384" offset="116736" size="1536" />
			<output>
				<port id="0" precision="FP32">
					<dim>1</dim>
					<dim>1</dim>
					<dim>384</dim>
				</port>
			</output>
		</layer>
		<layer id="45" name="Constant_31340" type="Const" version="opset1">
			<data element_type="f32" shape="1, 1, 384" offset="118272" size="1536" />
			<output>
				<port id="0" precision="FP32">
					<dim>1</dim>
					<dim>1</dim>
					<dim>384</dim>
				</port>
			</output>
		</layer>
		<layer id="46" name="Constant_31339" type="Const" version="opset1">
			<data element_type="f32" shape="1, 1, 1536" offset="119808" size="6144" />
			<output>
				<port id="0" precision="FP32">
					<dim>1</dim>
					<dim>1</dim>
					<dim>1536</dim>
				</port>
			</output>
		</layer>
		<layer id="47" name="Constant_31336" type="Const" version="opset1">
			<data element_type="f32" shape="1, 1, 384" offset="125952" size="1536" />
			<output>
				<port id="0" precision="FP32">
					<dim>1</dim>
					<dim>1</dim>
					<dim>384</dim>
				</port>
			</output>
		</layer>
		<layer id="48" name="Constant_31333" type="Const" version="opset1">
			<data element_type="f32" shape="1, 1, 384" offset="127488" size="1536" />
			<output>
				<port id="0" precision="FP32">
					<dim>1</dim>
					<dim>1</dim>
					<dim>384</dim>
				</port>
			</output>
		</layer>
		<layer id="49" name="embeddings.cls_token" type="Const" version="opset1">
			<data element_type="f32" shape="1, 1, 384" offset="129024" size="1536" />
			<output>
				<port id="0" precision="FP32" names="embeddings.cls_token">
					<dim>1</dim>
					<dim>1</dim>
					<dim>384</dim>
				</port>
			</output>
		</layer>
		<layer id="50" name="/embeddings/Shape" type="ShapeOf" version="opset3">
			<data output_type="i64" />
			<input>
				<port id="0" precision="FP32">
					<dim>1</dim>
					<dim>3</dim>
					<dim>224</dim>
					<dim>224</dim>
				</port>
			</input>
			<output>
				<port id="1" precision="I64" names="/embeddings/Shape_output_0">
					<dim>4</dim>
				</port>
			</output>
		</layer>
		<layer id="51" name="Constant_25298" type="Const" version="opset1">
			<data element_type="i64" shape="1" offset="130560" size="8" />
			<output>
				<port id="0" precision="I64">
					<dim>1</dim>
				</port>
			</output>
		</layer>
		<layer id="52" name="Constant_204" type="Const" version="opset1">
			<data element_type="i64" shape="" offset="130560" size="8" />
			<output>
				<port id="0" precision="I64" />
			</output>
		</layer>
		<layer id="53" name="/embeddings/Gather" type="Gather" version="opset8">
			<data batch_dims="0" />
			<input>
				<port id="0" precision="I64">
					<dim>4</dim>
				</port>
				<port id="1" precision="I64">
					<dim>1</dim>
				</port>
				<port id="2" precision="I64" />
			</input>
			<output>
				<port id="3" precision="I64" names="/embeddings/Unsqueeze_output_0">
					<dim>1</dim>
				</port>
			</output>
		</layer>
		<layer id="54" name="/embeddings/Constant_3" type="Const" version="opset1">
			<data element_type="i64" shape="1" offset="130568" size="8" />
			<output>
				<port id="0" precision="I64" names="/embeddings/Constant_3_output_0">
					<dim>1</dim>
				</port>
			</output>
		</layer>
		<layer id="55" name="/embeddings/Constant_4" type="Const" version="opset1">
			<data element_type="i64" shape="1" offset="130568" size="8" />
			<output>
				<port id="0" precision="I64" names="/embeddings/Constant_4_output_0">
					<dim>1</dim>
				</port>
			</output>
		</layer>
		<layer id="56" name="/embeddings/Concat" type="Concat" version="opset1">
			<data axis="0" />
			<input>
				<port id="0" precision="I64">
					<dim>1</dim>
				</port>
				<port id="1" precision="I64">
					<dim>1</dim>
				</port>
				<port id="2" precision="I64">
					<dim>1</dim>
				</port>
			</input>
			<output>
				<port id="3" precision="I64" names="/embeddings/Concat_output_0">
					<dim>3</dim>
				</port>
			</output>
		</layer>
		<layer id="57" name="Constant_7198" type="Const" version="opset1">
			<data element_type="i64" shape="1" offset="130568" size="8" />
			<output>
				<port id="0" precision="I64">
					<dim>1</dim>
				</port>
			</output>
		</layer>
		<layer id="58" name="/embeddings/Reshape" type="Reshape" version="opset1">
			<data special_zero="true" />
			<input>
				<port id="0" precision="I64">
					<dim>3</dim>
				</port>
				<port id="1" precision="I64">
					<dim>1</dim>
				</port>
			</input>
			<output>
				<port id="2" precision="I64" names="/embeddings/Reshape_output_0">
					<dim>3</dim>
				</port>
			</output>
		</layer>
		<layer id="59" name="/embeddings/Mul" type="Const" version="opset1">
			<data element_type="i64" shape="3" offset="130576" size="24" />
			<output>
				<port id="0" precision="I64" names="/embeddings/Mul_output_0">
					<dim>3</dim>
				</port>
			</output>
		</layer>
		<layer id="60" name="/embeddings/Equal" type="Equal" version="opset1">
			<data auto_broadcast="numpy" />
			<input>
				<port id="0" precision="I64">
					<dim>3</dim>
				</port>
				<port id="1" precision="I64">
					<dim>3</dim>
				</port>
			</input>
			<output>
				<port id="2" precision="BOOL" names="/embeddings/Equal_output_0">
					<dim>3</dim>
				</port>
			</output>
		</layer>
		<layer id="61" name="/embeddings/ConstantOfShape" type="Const" version="opset1">
			<data element_type="i64" shape="3" offset="130600" size="24" />
			<output>
				<port id="0" precision="I64" names="/embeddings/ConstantOfShape_output_0">
					<dim>3</dim>
				</port>
			</output>
		</layer>
		<layer id="62" name="/embeddings/Where" type="Select" version="opset1">
			<data auto_broadcast="numpy" />
			<input>
				<port id="0" precision="BOOL">
					<dim>3</dim>
				</port>
				<port id="1" precision="I64">
					<dim>3</dim>
				</port>
				<port id="2" precision="I64">
					<dim>3</dim>
				</port>
			</input>
			<output>
				<port id="3" precision="I64" names="/embeddings/Where_output_0">
					<dim>3</dim>
				</port>
			</output>
		</layer>
		<layer id="63" name="/embeddings/Expand" type="Broadcast" version="opset3">
			<data mode="bidirectional" />
			<input>
				<port id="0" precision="FP32">
					<dim>1</dim>
					<dim>1</dim>
					<dim>384</dim>
				</port>
				<port id="1" precision="I64">
					<dim>3</dim>
				</port>
			</input>
			<output>
				<port id="2" precision="FP32" names="/embeddings/Expand_output_0">
					<dim>1</dim>
					<dim>1</dim>
					<dim>384</dim>
				</port>
			</output>
		</layer>
		<layer id="64" name="embeddings.patch_embeddings.projection.weight" type="Const" version="opset1">
			<data element_type="f32" shape="384, 3, 16, 16" offset="130624" size="1179648" />
			<output>
				<port id="0" precision="FP32" names="embeddings.patch_embeddings.projection.weight">
					<dim>384</dim>
					<dim>3</dim>
					<dim>16</dim>
					<dim>16</dim>
				</port>
			</output>
		</layer>
		<layer id="65" name="/embeddings/patch_embeddings/projection/Conv/WithoutBiases" type="Convolution" version="opset1">
			<data strides="16, 16" dilations="1, 1" pads_begin="0, 0" pads_end="0, 0" auto_pad="explicit" />
			<input>
				<port id="0" precision="FP32">
					<dim>1</dim>
					<dim>3</dim>
					<dim>224</dim>
					<dim>224</dim>
				</port>
				<port id="1" precision="FP32">
					<dim>384</dim>
					<dim>3</dim>
					<dim>16</dim>
					<dim>16</dim>
				</port>
			</input>
			<output>
				<port id="2" precision="FP32">
					<dim>1</dim>
					<dim>384</dim>
					<dim>14</dim>
					<dim>14</dim>
				</port>
			</output>
		</layer>
		<layer id="66" name="Reshape_226" type="Const" version="opset1">
			<data element_type="f32" shape="1, 384, 1, 1" offset="1310272" size="1536" />
			<output>
				<port id="0" precision="FP32">
					<dim>1</dim>
					<dim>384</dim>
					<dim>1</dim>
					<dim>1</dim>
				</port>
			</output>
		</layer>
		<layer id="67" name="/embeddings/patch_embeddings/projection/Conv" type="Add" version="opset1">
			<data auto_broadcast="numpy" />
			<input>
				<port id="0" precision="FP32">
					<dim>1</dim>
					<dim>384</dim>
					<dim>14</dim>
					<dim>14</dim>
				</port>
				<port id="1" precision="FP32">
					<dim>1</dim>
					<dim>384</dim>
					<dim>1</dim>
					<dim>1</dim>
				</port>
			</input>
			<output>
				<port id="2" precision="FP32" names="/embeddings/patch_embeddings/projection/Conv_output_0">
					<dim>1</dim>
					<dim>384</dim>
					<dim>14</dim>
					<dim>14</dim>
				</port>
			</output>
		</layer>
		<layer id="68" name="/embeddings/patch_embeddings/Shape" type="ShapeOf" version="opset3">
			<data output_type="i64" />
			<input>
				<port id="0" precision="FP32">
					<dim>1</dim>
					<dim>384</dim>
					<dim>14</dim>
					<dim>14</dim>
				</port>
			</input>
			<output>
				<port id="1" precision="I64" names="/embeddings/patch_embeddings/Shape_output_0">
					<dim>4</dim>
				</port>
			</output>
		</layer>
		<layer id="69" name="/embeddings/patch_embeddings/Constant_1" type="Const" version="opset1">
			<data element_type="i64" shape="1" offset="130560" size="8" />
			<output>
				<port id="0" precision="I64" names="/embeddings/patch_embeddings/Constant_1_output_0">
					<dim>1</dim>
				</port>
			</output>
		</layer>
		<layer id="70" name="/embeddings/patch_embeddings/Constant_2" type="Const" version="opset1">
			<data element_type="i64" shape="1" offset="1311808" size="8" />
			<output>
				<port id="0" precision="I64" names="/embeddings/patch_embeddings/Constant_2_output_0">
					<dim>1</dim>
				</port>
			</output>
		</layer>
		<layer id="71" name="Broadcast_260" type="Const" version="opset1">
			<data element_type="i64" shape="1" offset="1311816" size="8" />
			<output>
				<port id="0" precision="I64">
					<dim>1</dim>
				</port>
			</output>
		</layer>
		<layer id="72" name="/embeddings/patch_embeddings/Slice" type="StridedSlice" version="opset1">
			<data begin_mask="0" end_mask="0" new_axis_mask="" shrink_axis_mask="" ellipsis_mask="" />
			<input>
				<port id="0" precision="I64">
					<dim>4</dim>
				</port>
				<port id="1" precision="I64">
					<dim>1</dim>
				</port>
				<port id="2" precision="I64">
					<dim>1</dim>
				</port>
				<port id="3" precision="I64">
					<dim>1</dim>
				</port>
			</input>
			<output>
				<port id="4" precision="I64" names="/embeddings/patch_embeddings/Slice_output_0">
					<dim>2</dim>
				</port>
			</output>
		</layer>
		<layer id="73" name="/embeddings/patch_embeddings/Constant_3" type="Const" version="opset1">
			<data element_type="i64" shape="1" offset="130568" size="8" />
			<output>
				<port id="0" precision="I64" names="/embeddings/patch_embeddings/Constant_3_output_0">
					<dim>1</dim>
				</port>
			</output>
		</layer>
		<layer id="74" name="/embeddings/patch_embeddings/Concat" type="Concat" version="opset1">
			<data axis="0" />
			<input>
				<port id="0" precision="I64">
					<dim>2</dim>
				</port>
				<port id="1" precision="I64">
					<dim>1</dim>
				</port>
			</input>
			<output>
				<port id="2" precision="I64" names="/embeddings/patch_embeddings/Concat_output_0">
					<dim>3</dim>
				</port>
			</output>
		</layer>
		<layer id="75" name="/embeddings/patch_embeddings/Reshape" type="Reshape" version="opset1">
			<data special_zero="true" />
			<input>
				<port id="0" precision="FP32">
					<dim>1</dim>
					<dim>384</dim>
					<dim>14</dim>
					<dim>14</dim>
				</port>
				<port id="1" precision="I64">
					<dim>3</dim>
				</port>
			</input>
			<output>
				<port id="2" precision="FP32" names="/embeddings/patch_embeddings/Reshape_output_0">
					<dim>1</dim>
					<dim>384</dim>
					<dim>196</dim>
				</port>
			</output>
		</layer>
		<layer id="76" name="Constant_312" type="Const" version="opset1">
			<data element_type="i64" shape="3" offset="1311824" size="24" />
			<output>
				<port id="0" precision="I64">
					<dim>3</dim>
				</port>
			</output>
		</layer>
		<layer id="77" name="/embeddings/patch_embeddings/Transpose" type="Transpose" version="opset1">
			<input>
				<port id="0" precision="FP32">
					<dim>1</dim>
					<dim>384</dim>
					<dim>196</dim>
				</port>
				<port id="1" precision="I64">
					<dim>3</dim>
				</port>
			</input>
			<output>
				<port id="2" precision="FP32" names="/embeddings/patch_embeddings/Transpose_output_0">
					<dim>1</dim>
					<dim>196</dim>
					<dim>384</dim>
				</port>
			</output>
		</layer>
		<layer id="78" name="/embeddings/Concat_1" type="Concat" version="opset1">
			<data axis="1" />
			<input>
				<port id="0" precision="FP32">
					<dim>1</dim>
					<dim>1</dim>
					<dim>384</dim>
				</port>
				<port id="1" precision="FP32">
					<dim>1</dim>
					<dim>196</dim>
					<dim>384</dim>
				</port>
			</input>
			<output>
				<port id="2" precision="FP32" names="/embeddings/Concat_1_output_0">
					<dim>1</dim>
					<dim>197</dim>
					<dim>384</dim>
				</port>
			</output>
		</layer>
		<layer id="79" name="embeddings.position_embeddings" type="Const" version="opset1">
			<data element_type="f32" shape="1, 197, 384" offset="1311848" size="302592" />
			<output>
				<port id="0" precision="FP32" names="embeddings.position_embeddings">
					<dim>1</dim>
					<dim>197</dim>
					<dim>384</dim>
				</port>
			</output>
		</layer>
		<layer id="80" name="/embeddings/Add" type="Add" version="opset1">
			<data auto_broadcast="numpy" />
			<input>
				<port id="0" precision="FP32">
					<dim>1</dim>
					<dim>197</dim>
					<dim>384</dim>
				</port>
				<port id="1" precision="FP32">
					<dim>1</dim>
					<dim>197</dim>
					<dim>384</dim>
				</port>
			</input>
			<output>
				<port id="2" precision="FP32" names="/embeddings/Add_output_0">
					<dim>1</dim>
					<dim>197</dim>
					<dim>384</dim>
				</port>
			</output>
		</layer>
		<layer id="81" name="Constant_440" type="Const" version="opset1">
			<data element_type="i64" shape="1" offset="130568" size="8" />
			<output>
				<port id="0" precision="I64">
					<dim>1</dim>
				</port>
			</output>
		</layer>
		<layer id="82" name="/encoder/layer.0/layernorm_before/Div" type="MVN" version="opset6">
			<data eps="9.999999960041972e-13" normalize_variance="true" eps_mode="INSIDE_SQRT" />
			<input>
				<port id="0" precision="FP32">
					<dim>1</dim>
					<dim>197</dim>
					<dim>384</dim>
				</port>
				<port id="1" precision="I64">
					<dim>1</dim>
				</port>
			</input>
			<output>
				<port id="2" precision="FP32" names="/encoder/layer.0/layernorm_before/Div_output_0">
					<dim>1</dim>
					<dim>197</dim>
					<dim>384</dim>
				</port>
			</output>
		</layer>
		<layer id="83" name="Constant_31331" type="Const" version="opset1">
			<data element_type="f32" shape="1, 1, 384" offset="1614440" size="1536" />
			<output>
				<port id="0" precision="FP32">
					<dim>1</dim>
					<dim>1</dim>
					<dim>384</dim>
				</port>
			</output>
		</layer>
		<layer id="84" name="/encoder/layer.0/layernorm_before/Mul" type="Multiply" version="opset1">
			<data auto_broadcast="numpy" />
			<input>
				<port id="0" precision="FP32">
					<dim>1</dim>
					<dim>197</dim>
					<dim>384</dim>
				</port>
				<port id="1" precision="FP32">
					<dim>1</dim>
					<dim>1</dim>
					<dim>384</dim>
				</port>
			</input>
			<output>
				<port id="2" precision="FP32" names="/encoder/layer.0/layernorm_before/Mul_output_0">
					<dim>1</dim>
					<dim>197</dim>
					<dim>384</dim>
				</port>
			</output>
		</layer>
		<layer id="85" name="Constant_31332" type="Const" version="opset1">
			<data element_type="f32" shape="1, 1, 384" offset="1615976" size="1536" />
			<output>
				<port id="0" precision="FP32">
					<dim>1</dim>
					<dim>1</dim>
					<dim>384</dim>
				</port>
			</output>
		</layer>
		<layer id="86" name="/encoder/layer.0/layernorm_before/Add_1" type="Add" version="opset1">
			<data auto_broadcast="numpy" />
			<input>
				<port id="0" precision="FP32">
					<dim>1</dim>
					<dim>197</dim>
					<dim>384</dim>
				</port>
				<port id="1" precision="FP32">
					<dim>1</dim>
					<dim>1</dim>
					<dim>384</dim>
				</port>
			</input>
			<output>
				<port id="2" precision="FP32" names="/encoder/layer.0/layernorm_before/Add_1_output_0">
					<dim>1</dim>
					<dim>197</dim>
					<dim>384</dim>
				</port>
			</output>
		</layer>
		<layer id="87" name="Constant_30686" type="Const" version="opset1">
			<data element_type="f32" shape="384, 384" offset="1617512" size="589824" />
			<output>
				<port id="0" precision="FP32">
					<dim>384</dim>
					<dim>384</dim>
				</port>
			</output>
		</layer>
		<layer id="88" name="/encoder/layer.0/attention/attention/query/MatMul" type="MatMul" version="opset1">
			<data transpose_a="false" transpose_b="true" />
			<input>
				<port id="0" precision="FP32">
					<dim>1</dim>
					<dim>197</dim>
					<dim>384</dim>
				</port>
				<port id="1" precision="FP32">
					<dim>384</dim>
					<dim>384</dim>
				</port>
			</input>
			<output>
				<port id="2" precision="FP32" names="/encoder/layer.0/attention/attention/query/MatMul_output_0">
					<dim>1</dim>
					<dim>197</dim>
					<dim>384</dim>
				</port>
			</output>
		</layer>
		<layer id="89" name="/encoder/layer.0/attention/attention/query/Add" type="Add" version="opset1">
			<data auto_broadcast="numpy" />
			<input>
				<port id="0" precision="FP32">
					<dim>1</dim>
					<dim>1</dim>
					<dim>384</dim>
				</port>
				<port id="1" precision="FP32">
					<dim>1</dim>
					<dim>197</dim>
					<dim>384</dim>
				</port>
			</input>
			<output>
				<port id="2" precision="FP32" names="/encoder/layer.0/attention/attention/query/Add_output_0">
					<dim>1</dim>
					<dim>197</dim>
					<dim>384</dim>
				</port>
			</output>
		</layer>
		<layer id="90" name="/encoder/layer.0/attention/attention/Concat_2" type="Const" version="opset1">
			<data element_type="i64" shape="4" offset="2207336" size="32" />
			<output>
				<port id="0" precision="I64">
					<dim>4</dim>
				</port>
			</output>
		</layer>
		<layer id="91" name="/encoder/layer.0/attention/attention/Reshape_2" type="Reshape" version="opset1">
			<data special_zero="true" />
			<input>
				<port id="0" precision="FP32">
					<dim>1</dim>
					<dim>197</dim>
					<dim>384</dim>
				</port>
				<port id="1" precision="I64">
					<dim>4</dim>
				</port>
			</input>
			<output>
				<port id="2" precision="FP32" names="/encoder/layer.0/attention/attention/Reshape_2_output_0">
					<dim>1</dim>
					<dim>197</dim>
					<dim>6</dim>
					<dim>64</dim>
				</port>
			</output>
		</layer>
		<layer id="92" name="Constant_650" type="Const" version="opset1">
			<data element_type="i64" shape="4" offset="2207368" size="32" />
			<output>
				<port id="0" precision="I64">
					<dim>4</dim>
				</port>
			</output>
		</layer>
		<layer id="93" name="/encoder/layer.0/attention/attention/Transpose_1" type="Transpose" version="opset1">
			<input>
				<port id="0" precision="FP32">
					<dim>1</dim>
					<dim>197</dim>
					<dim>6</dim>
					<dim>64</dim>
				</port>
				<port id="1" precision="I64">
					<dim>4</dim>
				</port>
			</input>
			<output>
				<port id="2" precision="FP32" names="/encoder/layer.0/attention/attention/Transpose_1_output_0">
					<dim>1</dim>
					<dim>6</dim>
					<dim>197</dim>
					<dim>64</dim>
				</port>
			</output>
		</layer>
		<layer id="94" name="/encoder/layer.0/attention/attention/Constant_14" type="Const" version="opset1">
			<data element_type="f32" shape="1" offset="2207400" size="4" />
			<output>
				<port id="0" precision="FP32" names="/encoder/layer.0/attention/attention/Constant_14_output_0">
					<dim>1</dim>
				</port>
			</output>
		</layer>
		<layer id="95" name="/encoder/layer.0/attention/attention/Shape_6" type="ShapeOf" version="opset3">
			<data output_type="i64" />
			<input>
				<port id="0" precision="FP32">
					<dim>1</dim>
					<dim>6</dim>
					<dim>197</dim>
					<dim>64</dim>
				</port>
			</input>
			<output>
				<port id="1" precision="I64" names="/encoder/layer.0/attention/attention/Shape_6_output_0">
					<dim>4</dim>
				</port>
			</output>
		</layer>
		<layer id="96" name="/encoder/layer.0/attention/attention/Constant_12" type="Const" version="opset1">
			<data element_type="i64" shape="1" offset="130568" size="8" />
			<output>
				<port id="0" precision="I64" names="/encoder/layer.0/attention/attention/Constant_12_output_0">
					<dim>1</dim>
				</port>
			</output>
		</layer>
		<layer id="97" name="/encoder/layer.0/attention/attention/Constant_13" type="Const" version="opset1">
			<data element_type="i64" shape="1" offset="2207404" size="8" />
			<output>
				<port id="0" precision="I64" names="/encoder/layer.0/attention/attention/Constant_13_output_0">
					<dim>1</dim>
				</port>
			</output>
		</layer>
		<layer id="98" name="Broadcast_657" type="Const" version="opset1">
			<data element_type="i64" shape="1" offset="1311816" size="8" />
			<output>
				<port id="0" precision="I64">
					<dim>1</dim>
				</port>
			</output>
		</layer>
		<layer id="99" name="/encoder/layer.0/attention/attention/Slice" type="StridedSlice" version="opset1">
			<data begin_mask="0" end_mask="0" new_axis_mask="" shrink_axis_mask="" ellipsis_mask="" />
			<input>
				<port id="0" precision="I64">
					<dim>4</dim>
				</port>
				<port id="1" precision="I64">
					<dim>1</dim>
				</port>
				<port id="2" precision="I64">
					<dim>1</dim>
				</port>
				<port id="3" precision="I64">
					<dim>1</dim>
				</port>
			</input>
			<output>
				<port id="4" precision="I64" names="/encoder/layer.0/attention/attention/Slice_output_0">
					<dim>1</dim>
				</port>
			</output>
		</layer>
		<layer id="100" name="/encoder/layer.0/attention/attention/Cast" type="Convert" version="opset1">
			<data destination_type="f32" />
			<input>
				<port id="0" precision="I64">
					<dim>1</dim>
				</port>
			</input>
			<output>
				<port id="1" precision="FP32" names="/encoder/layer.0/attention/attention/Cast_output_0">
					<dim>1</dim>
				</port>
			</output>
		</layer>
		<layer id="101" name="/encoder/layer.0/attention/attention/Sqrt" type="Sqrt" version="opset1">
			<input>
				<port id="0" precision="FP32">
					<dim>1</dim>
				</port>
			</input>
			<output>
				<port id="1" precision="FP32" names="/encoder/layer.0/attention/attention/Sqrt_output_0">
					<dim>1</dim>
				</port>
			</output>
		</layer>
		<layer id="102" name="/encoder/layer.0/attention/attention/Div" type="Divide" version="opset1">
			<data auto_broadcast="numpy" m_pythondiv="true" />
			<input>
				<port id="0" precision="FP32">
					<dim>1</dim>
				</port>
				<port id="1" precision="FP32">
					<dim>1</dim>
				</port>
			</input>
			<output>
				<port id="2" precision="FP32" names="/encoder/layer.0/attention/attention/Cast_1_output_0,/encoder/layer.0/attention/attention/Div_output_0">
					<dim>1</dim>
				</port>
			</output>
		</layer>
		<layer id="103" name="/encoder/layer.0/attention/attention/Sqrt_1" type="Sqrt" version="opset1">
			<input>
				<port id="0" precision="FP32">
					<dim>1</dim>
				</port>
			</input>
			<output>
				<port id="1" precision="FP32" names="/encoder/layer.0/attention/attention/Sqrt_1_output_0">
					<dim>1</dim>
				</port>
			</output>
		</layer>
		<layer id="104" name="/encoder/layer.0/attention/attention/Mul" type="Multiply" version="opset1">
			<data auto_broadcast="numpy" />
			<input>
				<port id="0" precision="FP32">
					<dim>1</dim>
					<dim>6</dim>
					<dim>197</dim>
					<dim>64</dim>
				</port>
				<port id="1" precision="FP32">
					<dim>1</dim>
				</port>
			</input>
			<output>
				<port id="2" precision="FP32" names="/encoder/layer.0/attention/attention/Mul_output_0">
					<dim>1</dim>
					<dim>6</dim>
					<dim>197</dim>
					<dim>64</dim>
				</port>
			</output>
		</layer>
		<layer id="105" name="Constant_31334" type="Const" version="opset1">
			<data element_type="f32" shape="1, 1, 384" offset="2207412" size="1536" />
			<output>
				<port id="0" precision="FP32">
					<dim>1</dim>
					<dim>1</dim>
					<dim>384</dim>
				</port>
			</output>
		</layer>
		<layer id="106" name="Constant_30693" type="Const" version="opset1">
			<data element_type="f32" shape="384, 384" offset="2208948" size="589824" />
			<output>
				<port id="0" precision="FP32">
					<dim>384</dim>
					<dim>384</dim>
				</port>
			</output>
		</layer>
		<layer id="107" name="/encoder/layer.0/attention/attention/key/MatMul" type="MatMul" version="opset1">
			<data transpose_a="false" transpose_b="true" />
			<input>
				<port id="0" precision="FP32">
					<dim>1</dim>
					<dim>197</dim>
					<dim>384</dim>
				</port>
				<port id="1" precision="FP32">
					<dim>384</dim>
					<dim>384</dim>
				</port>
			</input>
			<output>
				<port id="2" precision="FP32" names="/encoder/layer.0/attention/attention/key/MatMul_output_0">
					<dim>1</dim>
					<dim>197</dim>
					<dim>384</dim>
				</port>
			</output>
		</layer>
		<layer id="108" name="/encoder/layer.0/attention/attention/key/Add" type="Add" version="opset1">
			<data auto_broadcast="numpy" />
			<input>
				<port id="0" precision="FP32">
					<dim>1</dim>
					<dim>1</dim>
					<dim>384</dim>
				</port>
				<port id="1" precision="FP32">
					<dim>1</dim>
					<dim>197</dim>
					<dim>384</dim>
				</port>
			</input>
			<output>
				<port id="2" precision="FP32" names="/encoder/layer.0/attention/attention/key/Add_output_0">
					<dim>1</dim>
					<dim>197</dim>
					<dim>384</dim>
				</port>
			</output>
		</layer>
		<layer id="109" name="/encoder/layer.0/attention/attention/Concat" type="Const" version="opset1">
			<data element_type="i64" shape="4" offset="2207336" size="32" />
			<output>
				<port id="0" precision="I64">
					<dim>4</dim>
				</port>
			</output>
		</layer>
		<layer id="110" name="/encoder/layer.0/attention/attention/Reshape" type="Reshape" version="opset1">
			<data special_zero="true" />
			<input>
				<port id="0" precision="FP32">
					<dim>1</dim>
					<dim>197</dim>
					<dim>384</dim>
				</port>
				<port id="1" precision="I64">
					<dim>4</dim>
				</port>
			</input>
			<output>
				<port id="2" precision="FP32" names="/encoder/layer.0/attention/attention/Reshape_output_0">
					<dim>1</dim>
					<dim>197</dim>
					<dim>6</dim>
					<dim>64</dim>
				</port>
			</output>
		</layer>
		<layer id="111" name="Constant_680" type="Const" version="opset1">
			<data element_type="i64" shape="4" offset="2798772" size="32" />
			<output>
				<port id="0" precision="I64">
					<dim>4</dim>
				</port>
			</output>
		</layer>
		<layer id="112" name="/encoder/layer.0/attention/attention/Transpose_2" type="Transpose" version="opset1">
			<input>
				<port id="0" precision="FP32">
					<dim>1</dim>
					<dim>197</dim>
					<dim>6</dim>
					<dim>64</dim>
				</port>
				<port id="1" precision="I64">
					<dim>4</dim>
				</port>
			</input>
			<output>
				<port id="2" precision="FP32" names="/encoder/layer.0/attention/attention/Transpose_2_output_0">
					<dim>1</dim>
					<dim>6</dim>
					<dim>64</dim>
					<dim>197</dim>
				</port>
			</output>
		</layer>
		<layer id="113" name="/encoder/layer.0/attention/attention/Sqrt_2" type="Sqrt" version="opset1">
			<input>
				<port id="0" precision="FP32">
					<dim>1</dim>
				</port>
			</input>
			<output>
				<port id="1" precision="FP32" names="/encoder/layer.0/attention/attention/Sqrt_2_output_0">
					<dim>1</dim>
				</port>
			</output>
		</layer>
		<layer id="114" name="/encoder/layer.0/attention/attention/Mul_1" type="Multiply" version="opset1">
			<data auto_broadcast="numpy" />
			<input>
				<port id="0" precision="FP32">
					<dim>1</dim>
					<dim>6</dim>
					<dim>64</dim>
					<dim>197</dim>
				</port>
				<port id="1" precision="FP32">
					<dim>1</dim>
				</port>
			</input>
			<output>
				<port id="2" precision="FP32" names="/encoder/layer.0/attention/attention/Mul_1_output_0">
					<dim>1</dim>
					<dim>6</dim>
					<dim>64</dim>
					<dim>197</dim>
				</port>
			</output>
		</layer>
		<layer id="115" name="/encoder/layer.0/attention/attention/MatMul" type="MatMul" version="opset1">
			<data transpose_a="false" transpose_b="false" />
			<input>
				<port id="0" precision="FP32">
					<dim>1</dim>
					<dim>6</dim>
					<dim>197</dim>
					<dim>64</dim>
				</port>
				<port id="1" precision="FP32">
					<dim>1</dim>
					<dim>6</dim>
					<dim>64</dim>
					<dim>197</dim>
				</port>
			</input>
			<output>
				<port id="2" precision="FP32" names="/encoder/layer.0/attention/attention/MatMul_output_0">
					<dim>1</dim>
					<dim>6</dim>
					<dim>197</dim>
					<dim>197</dim>
				</port>
			</output>
		</layer>
		<layer id="116" name="/encoder/layer.0/attention/attention/Softmax" type="SoftMax" version="opset8">
			<data axis="-1" />
			<input>
				<port id="0" precision="FP32">
					<dim>1</dim>
					<dim>6</dim>
					<dim>197</dim>
					<dim>197</dim>
				</port>
			</input>
			<output>
				<port id="1" precision="FP32" names="/encoder/layer.0/attention/attention/Softmax_output_0">
					<dim>1</dim>
					<dim>6</dim>
					<dim>197</dim>
					<dim>197</dim>
				</port>
			</output>
		</layer>
		<layer id="117" name="Constant_31335" type="Const" version="opset1">
			<data element_type="f32" shape="1, 1, 384" offset="2798804" size="1536" />
			<output>
				<port id="0" precision="FP32">
					<dim>1</dim>
					<dim>1</dim>
					<dim>384</dim>
				</port>
			</output>
		</layer>
		<layer id="118" name="Constant_30700" type="Const" version="opset1">
			<data element_type="f32" shape="384, 384" offset="2800340" size="589824" />
			<output>
				<port id="0" precision="FP32">
					<dim>384</dim>
					<dim>384</dim>
				</port>
			</output>
		</layer>
		<layer id="119" name="/encoder/layer.0/attention/attention/value/MatMul" type="MatMul" version="opset1">
			<data transpose_a="false" transpose_b="true" />
			<input>
				<port id="0" precision="FP32">
					<dim>1</dim>
					<dim>197</dim>
					<dim>384</dim>
				</port>
				<port id="1" precision="FP32">
					<dim>384</dim>
					<dim>384</dim>
				</port>
			</input>
			<output>
				<port id="2" precision="FP32" names="/encoder/layer.0/attention/attention/value/MatMul_output_0">
					<dim>1</dim>
					<dim>197</dim>
					<dim>384</dim>
				</port>
			</output>
		</layer>
		<layer id="120" name="/encoder/layer.0/attention/attention/value/Add" type="Add" version="opset1">
			<data auto_broadcast="numpy" />
			<input>
				<port id="0" precision="FP32">
					<dim>1</dim>
					<dim>1</dim>
					<dim>384</dim>
				</port>
				<port id="1" precision="FP32">
					<dim>1</dim>
					<dim>197</dim>
					<dim>384</dim>
				</port>
			</input>
			<output>
				<port id="2" precision="FP32" names="/encoder/layer.0/attention/attention/value/Add_output_0">
					<dim>1</dim>
					<dim>197</dim>
					<dim>384</dim>
				</port>
			</output>
		</layer>
		<layer id="121" name="/encoder/layer.0/attention/attention/Concat_1" type="Const" version="opset1">
			<data element_type="i64" shape="4" offset="2207336" size="32" />
			<output>
				<port id="0" precision="I64">
					<dim>4</dim>
				</port>
			</output>
		</layer>
		<layer id="122" name="/encoder/layer.0/attention/attention/Reshape_1" type="Reshape" version="opset1">
			<data special_zero="true" />
			<input>
				<port id="0" precision="FP32">
					<dim>1</dim>
					<dim>197</dim>
					<dim>384</dim>
				</port>
				<port id="1" precision="I64">
					<dim>4</dim>
				</port>
			</input>
			<output>
				<port id="2" precision="FP32" names="/encoder/layer.0/attention/attention/Reshape_1_output_0">
					<dim>1</dim>
					<dim>197</dim>
					<dim>6</dim>
					<dim>64</dim>
				</port>
			</output>
		</layer>
		<layer id="123" name="Constant_585" type="Const" version="opset1">
			<data element_type="i64" shape="4" offset="2207368" size="32" />
			<output>
				<port id="0" precision="I64">
					<dim>4</dim>
				</port>
			</output>
		</layer>
		<layer id="124" name="/encoder/layer.0/attention/attention/Transpose" type="Transpose" version="opset1">
			<input>
				<port id="0" precision="FP32">
					<dim>1</dim>
					<dim>197</dim>
					<dim>6</dim>
					<dim>64</dim>
				</port>
				<port id="1" precision="I64">
					<dim>4</dim>
				</port>
			</input>
			<output>
				<port id="2" precision="FP32" names="/encoder/layer.0/attention/attention/Transpose_output_0">
					<dim>1</dim>
					<dim>6</dim>
					<dim>197</dim>
					<dim>64</dim>
				</port>
			</output>
		</layer>
		<layer id="125" name="/encoder/layer.0/attention/attention/MatMul_1" type="MatMul" version="opset1">
			<data transpose_a="false" transpose_b="false" />
			<input>
				<port id="0" precision="FP32">
					<dim>1</dim>
					<dim>6</dim>
					<dim>197</dim>
					<dim>197</dim>
				</port>
				<port id="1" precision="FP32">
					<dim>1</dim>
					<dim>6</dim>
					<dim>197</dim>
					<dim>64</dim>
				</port>
			</input>
			<output>
				<port id="2" precision="FP32" names="/encoder/layer.0/attention/attention/MatMul_1_output_0">
					<dim>1</dim>
					<dim>6</dim>
					<dim>197</dim>
					<dim>64</dim>
				</port>
			</output>
		</layer>
		<layer id="126" name="Constant_689" type="Const" version="opset1">
			<data element_type="i64" shape="4" offset="2207368" size="32" />
			<output>
				<port id="0" precision="I64">
					<dim>4</dim>
				</port>
			</output>
		</layer>
		<layer id="127" name="/encoder/layer.0/attention/attention/Transpose_3" type="Transpose" version="opset1">
			<input>
				<port id="0" precision="FP32">
					<dim>1</dim>
					<dim>6</dim>
					<dim>197</dim>
					<dim>64</dim>
				</port>
				<port id="1" precision="I64">
					<dim>4</dim>
				</port>
			</input>
			<output>
				<port id="2" precision="FP32" names="/encoder/layer.0/attention/attention/Transpose_3_output_0">
					<dim>1</dim>
					<dim>197</dim>
					<dim>6</dim>
					<dim>64</dim>
				</port>
			</output>
		</layer>
		<layer id="128" name="/encoder/layer.0/attention/attention/Concat_3" type="Const" version="opset1">
			<data element_type="i64" shape="3" offset="3390164" size="24" />
			<output>
				<port id="0" precision="I64">
					<dim>3</dim>
				</port>
			</output>
		</layer>
		<layer id="129" name="/encoder/layer.0/attention/attention/Reshape_3" type="Reshape" version="opset1">
			<data special_zero="true" />
			<input>
				<port id="0" precision="FP32">
					<dim>1</dim>
					<dim>197</dim>
					<dim>6</dim>
					<dim>64</dim>
				</port>
				<port id="1" precision="I64">
					<dim>3</dim>
				</port>
			</input>
			<output>
				<port id="2" precision="FP32" names="/encoder/layer.0/attention/attention/Reshape_3_output_0">
					<dim>1</dim>
					<dim>197</dim>
					<dim>384</dim>
				</port>
			</output>
		</layer>
		<layer id="130" name="Constant_30707" type="Const" version="opset1">
			<data element_type="f32" shape="384, 384" offset="3390188" size="589824" />
			<output>
				<port id="0" precision="FP32">
					<dim>384</dim>
					<dim>384</dim>
				</port>
			</output>
		</layer>
		<layer id="131" name="/encoder/layer.0/attention/output/dense/MatMul" type="MatMul" version="opset1">
			<data transpose_a="false" transpose_b="true" />
			<input>
				<port id="0" precision="FP32">
					<dim>1</dim>
					<dim>197</dim>
					<dim>384</dim>
				</port>
				<port id="1" precision="FP32">
					<dim>384</dim>
					<dim>384</dim>
				</port>
			</input>
			<output>
				<port id="2" precision="FP32" names="/encoder/layer.0/attention/output/dense/MatMul_output_0">
					<dim>1</dim>
					<dim>197</dim>
					<dim>384</dim>
				</port>
			</output>
		</layer>
		<layer id="132" name="/encoder/layer.0/attention/output/dense/Add" type="Add" version="opset1">
			<data auto_broadcast="numpy" />
			<input>
				<port id="0" precision="FP32">
					<dim>1</dim>
					<dim>1</dim>
					<dim>384</dim>
				</port>
				<port id="1" precision="FP32">
					<dim>1</dim>
					<dim>197</dim>
					<dim>384</dim>
				</port>
			</input>
			<output>
				<port id="2" precision="FP32" names="/encoder/layer.0/attention/output/dense/Add_output_0">
					<dim>1</dim>
					<dim>197</dim>
					<dim>384</dim>
				</port>
			</output>
		</layer>
		<layer id="133" name="/encoder/layer.0/Add" type="Add" version="opset1">
			<data auto_broadcast="numpy" />
			<input>
				<port id="0" precision="FP32">
					<dim>1</dim>
					<dim>197</dim>
					<dim>384</dim>
				</port>
				<port id="1" precision="FP32">
					<dim>1</dim>
					<dim>197</dim>
					<dim>384</dim>
				</port>
			</input>
			<output>
				<port id="2" precision="FP32" names="/encoder/layer.0/Add_output_0">
					<dim>1</dim>
					<dim>197</dim>
					<dim>384</dim>
				</port>
			</output>
		</layer>
		<layer id="134" name="Constant_753" type="Const" version="opset1">
			<data element_type="i64" shape="1" offset="130568" size="8" />
			<output>
				<port id="0" precision="I64">
					<dim>1</dim>
				</port>
			</output>
		</layer>
		<layer id="135" name="/encoder/layer.0/layernorm_after/Div" type="MVN" version="opset6">
			<data eps="9.999999960041972e-13" normalize_variance="true" eps_mode="INSIDE_SQRT" />
			<input>
				<port id="0" precision="FP32">
					<dim>1</dim>
					<dim>197</dim>
					<dim>384</dim>
				</port>
				<port id="1" precision="I64">
					<dim>1</dim>
				</port>
			</input>
			<output>
				<port id="2" precision="FP32" names="/encoder/layer.0/layernorm_after/Div_output_0">
					<dim>1</dim>
					<dim>197</dim>
					<dim>384</dim>
				</port>
			</output>
		</layer>
		<layer id="136" name="Constant_31337" type="Const" version="opset1">
			<data element_type="f32" shape="1, 1, 384" offset="3980012" size="1536" />
			<output>
				<port id="0" precision="FP32">
					<dim>1</dim>
					<dim>1</dim>
					<dim>384</dim>
				</port>
			</output>
		</layer>
		<layer id="137" name="/encoder/layer.0/layernorm_after/Mul" type="Multiply" version="opset1">
			<data auto_broadcast="numpy" />
			<input>
				<port id="0" precision="FP32">
					<dim>1</dim>
					<dim>197</dim>
					<dim>384</dim>
				</port>
				<port id="1" precision="FP32">
					<dim>1</dim>
					<dim>1</dim>
					<dim>384</dim>
				</port>
			</input>
			<output>
				<port id="2" precision="FP32" names="/encoder/layer.0/layernorm_after/Mul_output_0">
					<dim>1</dim>
					<dim>197</dim>
					<dim>384</dim>
				</port>
			</output>
		</layer>
		<layer id="138" name="Constant_31338" type="Const" version="opset1">
			<data element_type="f32" shape="1, 1, 384" offset="3981548" size="1536" />
			<output>
				<port id="0" precision="FP32">
					<dim>1</dim>
					<dim>1</dim>
					<dim>384</dim>
				</port>
			</output>
		</layer>
		<layer id="139" name="/encoder/layer.0/layernorm_after/Add_1" type="Add" version="opset1">
			<data auto_broadcast="numpy" />
			<input>
				<port id="0" precision="FP32">
					<dim>1</dim>
					<dim>197</dim>
					<dim>384</dim>
				</port>
				<port id="1" precision="FP32">
					<dim>1</dim>
					<dim>1</dim>
					<dim>384</dim>
				</port>
			</input>
			<output>
				<port id="2" precision="FP32" names="/encoder/layer.0/layernorm_after/Add_1_output_0">
					<dim>1</dim>
					<dim>197</dim>
					<dim>384</dim>
				</port>
			</output>
		</layer>
		<layer id="140" name="Constant_30715" type="Const" version="opset1">
			<data element_type="f32" shape="1536, 384" offset="3983084" size="2359296" />
			<output>
				<port id="0" precision="FP32">
					<dim>1536</dim>
					<dim>384</dim>
				</port>
			</output>
		</layer>
		<layer id="141" name="/encoder/layer.0/intermediate/dense/MatMul" type="MatMul" version="opset1">
			<data transpose_a="false" transpose_b="true" />
			<input>
				<port id="0" precision="FP32">
					<dim>1</dim>
					<dim>197</dim>
					<dim>384</dim>
				</port>
				<port id="1" precision="FP32">
					<dim>1536</dim>
					<dim>384</dim>
				</port>
			</input>
			<output>
				<port id="2" precision="FP32" names="/encoder/layer.0/intermediate/dense/MatMul_output_0">
					<dim>1</dim>
					<dim>197</dim>
					<dim>1536</dim>
				</port>
			</output>
		</layer>
		<layer id="142" name="/encoder/layer.0/intermediate/dense/Add" type="Add" version="opset1">
			<data auto_broadcast="numpy" />
			<input>
				<port id="0" precision="FP32">
					<dim>1</dim>
					<dim>1</dim>
					<dim>1536</dim>
				</port>
				<port id="1" precision="FP32">
					<dim>1</dim>
					<dim>197</dim>
					<dim>1536</dim>
				</port>
			</input>
			<output>
				<port id="2" precision="FP32" names="/encoder/layer.0/intermediate/dense/Add_output_0">
					<dim>1</dim>
					<dim>197</dim>
					<dim>1536</dim>
				</port>
			</output>
		</layer>
		<layer id="143" name="/encoder/layer.0/intermediate/intermediate_act_fn/Mul_1" type="Gelu" version="opset7">
			<data approximation_mode="ERF" />
			<input>
				<port id="0" precision="FP32">
					<dim>1</dim>
					<dim>197</dim>
					<dim>1536</dim>
				</port>
			</input>
			<output>
				<port id="1" precision="FP32" names="/encoder/layer.0/intermediate/intermediate_act_fn/Mul_1_output_0">
					<dim>1</dim>
					<dim>197</dim>
					<dim>1536</dim>
				</port>
			</output>
		</layer>
		<layer id="144" name="Constant_30723" type="Const" version="opset1">
			<data element_type="f32" shape="384, 1536" offset="6342380" size="2359296" />
			<output>
				<port id="0" precision="FP32">
					<dim>384</dim>
					<dim>1536</dim>
				</port>
			</output>
		</layer>
		<layer id="145" name="/encoder/layer.0/output/dense/MatMul" type="MatMul" version="opset1">
			<data transpose_a="false" transpose_b="true" />
			<input>
				<port id="0" precision="FP32">
					<dim>1</dim>
					<dim>197</dim>
					<dim>1536</dim>
				</port>
				<port id="1" precision="FP32">
					<dim>384</dim>
					<dim>1536</dim>
				</port>
			</input>
			<output>
				<port id="2" precision="FP32" names="/encoder/layer.0/output/dense/MatMul_output_0">
					<dim>1</dim>
					<dim>197</dim>
					<dim>384</dim>
				</port>
			</output>
		</layer>
		<layer id="146" name="/encoder/layer.0/output/dense/Add" type="Add" version="opset1">
			<data auto_broadcast="numpy" />
			<input>
				<port id="0" precision="FP32">
					<dim>1</dim>
					<dim>1</dim>
					<dim>384</dim>
				</port>
				<port id="1" precision="FP32">
					<dim>1</dim>
					<dim>197</dim>
					<dim>384</dim>
				</port>
			</input>
			<output>
				<port id="2" precision="FP32" names="/encoder/layer.0/output/dense/Add_output_0">
					<dim>1</dim>
					<dim>197</dim>
					<dim>384</dim>
				</port>
			</output>
		</layer>
		<layer id="147" name="/encoder/layer.0/output/Add" type="Add" version="opset1">
			<data auto_broadcast="numpy" />
			<input>
				<port id="0" precision="FP32">
					<dim>1</dim>
					<dim>197</dim>
					<dim>384</dim>
				</port>
				<port id="1" precision="FP32">
					<dim>1</dim>
					<dim>197</dim>
					<dim>384</dim>
				</port>
			</input>
			<output>
				<port id="2" precision="FP32" names="/encoder/layer.0/output/Add_output_0">
					<dim>1</dim>
					<dim>197</dim>
					<dim>384</dim>
				</port>
			</output>
		</layer>
		<layer id="148" name="Constant_779" type="Const" version="opset1">
			<data element_type="i64" shape="1" offset="130568" size="8" />
			<output>
				<port id="0" precision="I64">
					<dim>1</dim>
				</port>
			</output>
		</layer>
		<layer id="149" name="/encoder/layer.1/layernorm_before/Div" type="MVN" version="opset6">
			<data eps="9.999999960041972e-13" normalize_variance="true" eps_mode="INSIDE_SQRT" />
			<input>
				<port id="0" precision="FP32">
					<dim>1</dim>
					<dim>197</dim>
					<dim>384</dim>
				</port>
				<port id="1" precision="I64">
					<dim>1</dim>
				</port>
			</input>
			<output>
				<port id="2" precision="FP32" names="/encoder/layer.1/layernorm_before/Div_output_0">
					<dim>1</dim>
					<dim>197</dim>
					<dim>384</dim>
				</port>
			</output>
		</layer>
		<layer id="150" name="Constant_31341" type="Const" version="opset1">
			<data element_type="f32" shape="1, 1, 384" offset="8701676" size="1536" />
			<output>
				<port id="0" precision="FP32">
					<dim>1</dim>
					<dim>1</dim>
					<dim>384</dim>
				</port>
			</output>
		</layer>
		<layer id="151" name="/encoder/layer.1/layernorm_before/Mul" type="Multiply" version="opset1">
			<data auto_broadcast="numpy" />
			<input>
				<port id="0" precision="FP32">
					<dim>1</dim>
					<dim>197</dim>
					<dim>384</dim>
				</port>
				<port id="1" precision="FP32">
					<dim>1</dim>
					<dim>1</dim>
					<dim>384</dim>
				</port>
			</input>
			<output>
				<port id="2" precision="FP32" names="/encoder/layer.1/layernorm_before/Mul_output_0">
					<dim>1</dim>
					<dim>197</dim>
					<dim>384</dim>
				</port>
			</output>
		</layer>
		<layer id="152" name="Constant_31342" type="Const" version="opset1">
			<data element_type="f32" shape="1, 1, 384" offset="8703212" size="1536" />
			<output>
				<port id="0" precision="FP32">
					<dim>1</dim>
					<dim>1</dim>
					<dim>384</dim>
				</port>
			</output>
		</layer>
		<layer id="153" name="/encoder/layer.1/layernorm_before/Add_1" type="Add" version="opset1">
			<data auto_broadcast="numpy" />
			<input>
				<port id="0" precision="FP32">
					<dim>1</dim>
					<dim>197</dim>
					<dim>384</dim>
				</port>
				<port id="1" precision="FP32">
					<dim>1</dim>
					<dim>1</dim>
					<dim>384</dim>
				</port>
			</input>
			<output>
				<port id="2" precision="FP32" names="/encoder/layer.1/layernorm_before/Add_1_output_0">
					<dim>1</dim>
					<dim>197</dim>
					<dim>384</dim>
				</port>
			</output>
		</layer>
		<layer id="154" name="Constant_30731" type="Const" version="opset1">
			<data element_type="f32" shape="384, 384" offset="8704748" size="589824" />
			<output>
				<port id="0" precision="FP32">
					<dim>384</dim>
					<dim>384</dim>
				</port>
			</output>
		</layer>
		<layer id="155" name="/encoder/layer.1/attention/attention/query/MatMul" type="MatMul" version="opset1">
			<data transpose_a="false" transpose_b="true" />
			<input>
				<port id="0" precision="FP32">
					<dim>1</dim>
					<dim>197</dim>
					<dim>384</dim>
				</port>
				<port id="1" precision="FP32">
					<dim>384</dim>
					<dim>384</dim>
				</port>
			</input>
			<output>
				<port id="2" precision="FP32" names="/encoder/layer.1/attention/attention/query/MatMul_output_0">
					<dim>1</dim>
					<dim>197</dim>
					<dim>384</dim>
				</port>
			</output>
		</layer>
		<layer id="156" name="/encoder/layer.1/attention/attention/query/Add" type="Add" version="opset1">
			<data auto_broadcast="numpy" />
			<input>
				<port id="0" precision="FP32">
					<dim>1</dim>
					<dim>1</dim>
					<dim>384</dim>
				</port>
				<port id="1" precision="FP32">
					<dim>1</dim>
					<dim>197</dim>
					<dim>384</dim>
				</port>
			</input>
			<output>
				<port id="2" precision="FP32" names="/encoder/layer.1/attention/attention/query/Add_output_0">
					<dim>1</dim>
					<dim>197</dim>
					<dim>384</dim>
				</port>
			</output>
		</layer>
		<layer id="157" name="/encoder/layer.1/attention/attention/Concat_2" type="Const" version="opset1">
			<data element_type="i64" shape="4" offset="2207336" size="32" />
			<output>
				<port id="0" precision="I64">
					<dim>4</dim>
				</port>
			</output>
		</layer>
		<layer id="158" name="/encoder/layer.1/attention/attention/Reshape_2" type="Reshape" version="opset1">
			<data special_zero="true" />
			<input>
				<port id="0" precision="FP32">
					<dim>1</dim>
					<dim>197</dim>
					<dim>384</dim>
				</port>
				<port id="1" precision="I64">
					<dim>4</dim>
				</port>
			</input>
			<output>
				<port id="2" precision="FP32" names="/encoder/layer.1/attention/attention/Reshape_2_output_0">
					<dim>1</dim>
					<dim>197</dim>
					<dim>6</dim>
					<dim>64</dim>
				</port>
			</output>
		</layer>
		<layer id="159" name="Constant_989" type="Const" version="opset1">
			<data element_type="i64" shape="4" offset="2207368" size="32" />
			<output>
				<port id="0" precision="I64">
					<dim>4</dim>
				</port>
			</output>
		</layer>
		<layer id="160" name="/encoder/layer.1/attention/attention/Transpose_1" type="Transpose" version="opset1">
			<input>
				<port id="0" precision="FP32">
					<dim>1</dim>
					<dim>197</dim>
					<dim>6</dim>
					<dim>64</dim>
				</port>
				<port id="1" precision="I64">
					<dim>4</dim>
				</port>
			</input>
			<output>
				<port id="2" precision="FP32" names="/encoder/layer.1/attention/attention/Transpose_1_output_0">
					<dim>1</dim>
					<dim>6</dim>
					<dim>197</dim>
					<dim>64</dim>
				</port>
			</output>
		</layer>
		<layer id="161" name="/encoder/layer.1/attention/attention/Constant_14" type="Const" version="opset1">
			<data element_type="f32" shape="1" offset="2207400" size="4" />
			<output>
				<port id="0" precision="FP32" names="/encoder/layer.1/attention/attention/Constant_14_output_0">
					<dim>1</dim>
				</port>
			</output>
		</layer>
		<layer id="162" name="/encoder/layer.1/attention/attention/Shape_6" type="ShapeOf" version="opset3">
			<data output_type="i64" />
			<input>
				<port id="0" precision="FP32">
					<dim>1</dim>
					<dim>6</dim>
					<dim>197</dim>
					<dim>64</dim>
				</port>
			</input>
			<output>
				<port id="1" precision="I64" names="/encoder/layer.1/attention/attention/Shape_6_output_0">
					<dim>4</dim>
				</port>
			</output>
		</layer>
		<layer id="163" name="/encoder/layer.1/attention/attention/Constant_12" type="Const" version="opset1">
			<data element_type="i64" shape="1" offset="130568" size="8" />
			<output>
				<port id="0" precision="I64" names="/encoder/layer.1/attention/attention/Constant_12_output_0">
					<dim>1</dim>
				</port>
			</output>
		</layer>
		<layer id="164" name="/encoder/layer.1/attention/attention/Constant_13" type="Const" version="opset1">
			<data element_type="i64" shape="1" offset="2207404" size="8" />
			<output>
				<port id="0" precision="I64" names="/encoder/layer.1/attention/attention/Constant_13_output_0">
					<dim>1</dim>
				</port>
			</output>
		</layer>
		<layer id="165" name="Broadcast_996" type="Const" version="opset1">
			<data element_type="i64" shape="1" offset="1311816" size="8" />
			<output>
				<port id="0" precision="I64">
					<dim>1</dim>
				</port>
			</output>
		</layer>
		<layer id="166" name="/encoder/layer.1/attention/attention/Slice" type="StridedSlice" version="opset1">
			<data begin_mask="0" end_mask="0" new_axis_mask="" shrink_axis_mask="" ellipsis_mask="" />
			<input>
				<port id="0" precision="I64">
					<dim>4</dim>
				</port>
				<port id="1" precision="I64">
					<dim>1</dim>
				</port>
				<port id="2" precision="I64">
					<dim>1</dim>
				</port>
				<port id="3" precision="I64">
					<dim>1</dim>
				</port>
			</input>
			<output>
				<port id="4" precision="I64" names="/encoder/layer.1/attention/attention/Slice_output_0">
					<dim>1</dim>
				</port>
			</output>
		</layer>
		<layer id="167" name="/encoder/layer.1/attention/attention/Cast" type="Convert" version="opset1">
			<data destination_type="f32" />
			<input>
				<port id="0" precision="I64">
					<dim>1</dim>
				</port>
			</input>
			<output>
				<port id="1" precision="FP32" names="/encoder/layer.1/attention/attention/Cast_output_0">
					<dim>1</dim>
				</port>
			</output>
		</layer>
		<layer id="168" name="/encoder/layer.1/attention/attention/Sqrt" type="Sqrt" version="opset1">
			<input>
				<port id="0" precision="FP32">
					<dim>1</dim>
				</port>
			</input>
			<output>
				<port id="1" precision="FP32" names="/encoder/layer.1/attention/attention/Sqrt_output_0">
					<dim>1</dim>
				</port>
			</output>
		</layer>
		<layer id="169" name="/encoder/layer.1/attention/attention/Div" type="Divide" version="opset1">
			<data auto_broadcast="numpy" m_pythondiv="true" />
			<input>
				<port id="0" precision="FP32">
					<dim>1</dim>
				</port>
				<port id="1" precision="FP32">
					<dim>1</dim>
				</port>
			</input>
			<output>
				<port id="2" precision="FP32" names="/encoder/layer.1/attention/attention/Cast_1_output_0,/encoder/layer.1/attention/attention/Div_output_0">
					<dim>1</dim>
				</port>
			</output>
		</layer>
		<layer id="170" name="/encoder/layer.1/attention/attention/Sqrt_1" type="Sqrt" version="opset1">
			<input>
				<port id="0" precision="FP32">
					<dim>1</dim>
				</port>
			</input>
			<output>
				<port id="1" precision="FP32" names="/encoder/layer.1/attention/attention/Sqrt_1_output_0">
					<dim>1</dim>
				</port>
			</output>
		</layer>
		<layer id="171" name="/encoder/layer.1/attention/attention/Mul" type="Multiply" version="opset1">
			<data auto_broadcast="numpy" />
			<input>
				<port id="0" precision="FP32">
					<dim>1</dim>
					<dim>6</dim>
					<dim>197</dim>
					<dim>64</dim>
				</port>
				<port id="1" precision="FP32">
					<dim>1</dim>
				</port>
			</input>
			<output>
				<port id="2" precision="FP32" names="/encoder/layer.1/attention/attention/Mul_output_0">
					<dim>1</dim>
					<dim>6</dim>
					<dim>197</dim>
					<dim>64</dim>
				</port>
			</output>
		</layer>
		<layer id="172" name="Constant_31344" type="Const" version="opset1">
			<data element_type="f32" shape="1, 1, 384" offset="9294572" size="1536" />
			<output>
				<port id="0" precision="FP32">
					<dim>1</dim>
					<dim>1</dim>
					<dim>384</dim>
				</port>
			</output>
		</layer>
		<layer id="173" name="Constant_30738" type="Const" version="opset1">
			<data element_type="f32" shape="384, 384" offset="9296108" size="589824" />
			<output>
				<port id="0" precision="FP32">
					<dim>384</dim>
					<dim>384</dim>
				</port>
			</output>
		</layer>
		<layer id="174" name="/encoder/layer.1/attention/attention/key/MatMul" type="MatMul" version="opset1">
			<data transpose_a="false" transpose_b="true" />
			<input>
				<port id="0" precision="FP32">
					<dim>1</dim>
					<dim>197</dim>
					<dim>384</dim>
				</port>
				<port id="1" precision="FP32">
					<dim>384</dim>
					<dim>384</dim>
				</port>
			</input>
			<output>
				<port id="2" precision="FP32" names="/encoder/layer.1/attention/attention/key/MatMul_output_0">
					<dim>1</dim>
					<dim>197</dim>
					<dim>384</dim>
				</port>
			</output>
		</layer>
		<layer id="175" name="/encoder/layer.1/attention/attention/key/Add" type="Add" version="opset1">
			<data auto_broadcast="numpy" />
			<input>
				<port id="0" precision="FP32">
					<dim>1</dim>
					<dim>1</dim>
					<dim>384</dim>
				</port>
				<port id="1" precision="FP32">
					<dim>1</dim>
					<dim>197</dim>
					<dim>384</dim>
				</port>
			</input>
			<output>
				<port id="2" precision="FP32" names="/encoder/layer.1/attention/attention/key/Add_output_0">
					<dim>1</dim>
					<dim>197</dim>
					<dim>384</dim>
				</port>
			</output>
		</layer>
		<layer id="176" name="/encoder/layer.1/attention/attention/Concat" type="Const" version="opset1">
			<data element_type="i64" shape="4" offset="2207336" size="32" />
			<output>
				<port id="0" precision="I64">
					<dim>4</dim>
				</port>
			</output>
		</layer>
		<layer id="177" name="/encoder/layer.1/attention/attention/Reshape" type="Reshape" version="opset1">
			<data special_zero="true" />
			<input>
				<port id="0" precision="FP32">
					<dim>1</dim>
					<dim>197</dim>
					<dim>384</dim>
				</port>
				<port id="1" precision="I64">
					<dim>4</dim>
				</port>
			</input>
			<output>
				<port id="2" precision="FP32" names="/encoder/layer.1/attention/attention/Reshape_output_0">
					<dim>1</dim>
					<dim>197</dim>
					<dim>6</dim>
					<dim>64</dim>
				</port>
			</output>
		</layer>
		<layer id="178" name="Constant_1019" type="Const" version="opset1">
			<data element_type="i64" shape="4" offset="2798772" size="32" />
			<output>
				<port id="0" precision="I64">
					<dim>4</dim>
				</port>
			</output>
		</layer>
		<layer id="179" name="/encoder/layer.1/attention/attention/Transpose_2" type="Transpose" version="opset1">
			<input>
				<port id="0" precision="FP32">
					<dim>1</dim>
					<dim>197</dim>
					<dim>6</dim>
					<dim>64</dim>
				</port>
				<port id="1" precision="I64">
					<dim>4</dim>
				</port>
			</input>
			<output>
				<port id="2" precision="FP32" names="/encoder/layer.1/attention/attention/Transpose_2_output_0">
					<dim>1</dim>
					<dim>6</dim>
					<dim>64</dim>
					<dim>197</dim>
				</port>
			</output>
		</layer>
		<layer id="180" name="/encoder/layer.1/attention/attention/Sqrt_2" type="Sqrt" version="opset1">
			<input>
				<port id="0" precision="FP32">
					<dim>1</dim>
				</port>
			</input>
			<output>
				<port id="1" precision="FP32" names="/encoder/layer.1/attention/attention/Sqrt_2_output_0">
					<dim>1</dim>
				</port>
			</output>
		</layer>
		<layer id="181" name="/encoder/layer.1/attention/attention/Mul_1" type="Multiply" version="opset1">
			<data auto_broadcast="numpy" />
			<input>
				<port id="0" precision="FP32">
					<dim>1</dim>
					<dim>6</dim>
					<dim>64</dim>
					<dim>197</dim>
				</port>
				<port id="1" precision="FP32">
					<dim>1</dim>
				</port>
			</input>
			<output>
				<port id="2" precision="FP32" names="/encoder/layer.1/attention/attention/Mul_1_output_0">
					<dim>1</dim>
					<dim>6</dim>
					<dim>64</dim>
					<dim>197</dim>
				</port>
			</output>
		</layer>
		<layer id="182" name="/encoder/layer.1/attention/attention/MatMul" type="MatMul" version="opset1">
			<data transpose_a="false" transpose_b="false" />
			<input>
				<port id="0" precision="FP32">
					<dim>1</dim>
					<dim>6</dim>
					<dim>197</dim>
					<dim>64</dim>
				</port>
				<port id="1" precision="FP32">
					<dim>1</dim>
					<dim>6</dim>
					<dim>64</dim>
					<dim>197</dim>
				</port>
			</input>
			<output>
				<port id="2" precision="FP32" names="/encoder/layer.1/attention/attention/MatMul_output_0">
					<dim>1</dim>
					<dim>6</dim>
					<dim>197</dim>
					<dim>197</dim>
				</port>
			</output>
		</layer>
		<layer id="183" name="/encoder/layer.1/attention/attention/Softmax" type="SoftMax" version="opset8">
			<data axis="-1" />
			<input>
				<port id="0" precision="FP32">
					<dim>1</dim>
					<dim>6</dim>
					<dim>197</dim>
					<dim>197</dim>
				</port>
			</input>
			<output>
				<port id="1" precision="FP32" names="/encoder/layer.1/attention/attention/Softmax_output_0">
					<dim>1</dim>
					<dim>6</dim>
					<dim>197</dim>
					<dim>197</dim>
				</port>
			</output>
		</layer>
		<layer id="184" name="Constant_31345" type="Const" version="opset1">
			<data element_type="f32" shape="1, 1, 384" offset="9885932" size="1536" />
			<output>
				<port id="0" precision="FP32">
					<dim>1</dim>
					<dim>1</dim>
					<dim>384</dim>
				</port>
			</output>
		</layer>
		<layer id="185" name="Constant_30745" type="Const" version="opset1">
			<data element_type="f32" shape="384, 384" offset="9887468" size="589824" />
			<output>
				<port id="0" precision="FP32">
					<dim>384</dim>
					<dim>384</dim>
				</port>
			</output>
		</layer>
		<layer id="186" name="/encoder/layer.1/attention/attention/value/MatMul" type="MatMul" version="opset1">
			<data transpose_a="false" transpose_b="true" />
			<input>
				<port id="0" precision="FP32">
					<dim>1</dim>
					<dim>197</dim>
					<dim>384</dim>
				</port>
				<port id="1" precision="FP32">
					<dim>384</dim>
					<dim>384</dim>
				</port>
			</input>
			<output>
				<port id="2" precision="FP32" names="/encoder/layer.1/attention/attention/value/MatMul_output_0">
					<dim>1</dim>
					<dim>197</dim>
					<dim>384</dim>
				</port>
			</output>
		</layer>
		<layer id="187" name="/encoder/layer.1/attention/attention/value/Add" type="Add" version="opset1">
			<data auto_broadcast="numpy" />
			<input>
				<port id="0" precision="FP32">
					<dim>1</dim>
					<dim>1</dim>
					<dim>384</dim>
				</port>
				<port id="1" precision="FP32">
					<dim>1</dim>
					<dim>197</dim>
					<dim>384</dim>
				</port>
			</input>
			<output>
				<port id="2" precision="FP32" names="/encoder/layer.1/attention/attention/value/Add_output_0">
					<dim>1</dim>
					<dim>197</dim>
					<dim>384</dim>
				</port>
			</output>
		</layer>
		<layer id="188" name="/encoder/layer.1/attention/attention/Concat_1" type="Const" version="opset1">
			<data element_type="i64" shape="4" offset="2207336" size="32" />
			<output>
				<port id="0" precision="I64">
					<dim>4</dim>
				</port>
			</output>
		</layer>
		<layer id="189" name="/encoder/layer.1/attention/attention/Reshape_1" type="Reshape" version="opset1">
			<data special_zero="true" />
			<input>
				<port id="0" precision="FP32">
					<dim>1</dim>
					<dim>197</dim>
					<dim>384</dim>
				</port>
				<port id="1" precision="I64">
					<dim>4</dim>
				</port>
			</input>
			<output>
				<port id="2" precision="FP32" names="/encoder/layer.1/attention/attention/Reshape_1_output_0">
					<dim>1</dim>
					<dim>197</dim>
					<dim>6</dim>
					<dim>64</dim>
				</port>
			</output>
		</layer>
		<layer id="190" name="Constant_924" type="Const" version="opset1">
			<data element_type="i64" shape="4" offset="2207368" size="32" />
			<output>
				<port id="0" precision="I64">
					<dim>4</dim>
				</port>
			</output>
		</layer>
		<layer id="191" name="/encoder/layer.1/attention/attention/Transpose" type="Transpose" version="opset1">
			<input>
				<port id="0" precision="FP32">
					<dim>1</dim>
					<dim>197</dim>
					<dim>6</dim>
					<dim>64</dim>
				</port>
				<port id="1" precision="I64">
					<dim>4</dim>
				</port>
			</input>
			<output>
				<port id="2" precision="FP32" names="/encoder/layer.1/attention/attention/Transpose_output_0">
					<dim>1</dim>
					<dim>6</dim>
					<dim>197</dim>
					<dim>64</dim>
				</port>
			</output>
		</layer>
		<layer id="192" name="/encoder/layer.1/attention/attention/MatMul_1" type="MatMul" version="opset1">
			<data transpose_a="false" transpose_b="false" />
			<input>
				<port id="0" precision="FP32">
					<dim>1</dim>
					<dim>6</dim>
					<dim>197</dim>
					<dim>197</dim>
				</port>
				<port id="1" precision="FP32">
					<dim>1</dim>
					<dim>6</dim>
					<dim>197</dim>
					<dim>64</dim>
				</port>
			</input>
			<output>
				<port id="2" precision="FP32" names="/encoder/layer.1/attention/attention/MatMul_1_output_0">
					<dim>1</dim>
					<dim>6</dim>
					<dim>197</dim>
					<dim>64</dim>
				</port>
			</output>
		</layer>
		<layer id="193" name="Constant_1028" type="Const" version="opset1">
			<data element_type="i64" shape="4" offset="2207368" size="32" />
			<output>
				<port id="0" precision="I64">
					<dim>4</dim>
				</port>
			</output>
		</layer>
		<layer id="194" name="/encoder/layer.1/attention/attention/Transpose_3" type="Transpose" version="opset1">
			<input>
				<port id="0" precision="FP32">
					<dim>1</dim>
					<dim>6</dim>
					<dim>197</dim>
					<dim>64</dim>
				</port>
				<port id="1" precision="I64">
					<dim>4</dim>
				</port>
			</input>
			<output>
				<port id="2" precision="FP32" names="/encoder/layer.1/attention/attention/Transpose_3_output_0">
					<dim>1</dim>
					<dim>197</dim>
					<dim>6</dim>
					<dim>64</dim>
				</port>
			</output>
		</layer>
		<layer id="195" name="/encoder/layer.1/attention/attention/Concat_3" type="Const" version="opset1">
			<data element_type="i64" shape="3" offset="3390164" size="24" />
			<output>
				<port id="0" precision="I64">
					<dim>3</dim>
				</port>
			</output>
		</layer>
		<layer id="196" name="/encoder/layer.1/attention/attention/Reshape_3" type="Reshape" version="opset1">
			<data special_zero="true" />
			<input>
				<port id="0" precision="FP32">
					<dim>1</dim>
					<dim>197</dim>
					<dim>6</dim>
					<dim>64</dim>
				</port>
				<port id="1" precision="I64">
					<dim>3</dim>
				</port>
			</input>
			<output>
				<port id="2" precision="FP32" names="/encoder/layer.1/attention/attention/Reshape_3_output_0">
					<dim>1</dim>
					<dim>197</dim>
					<dim>384</dim>
				</port>
			</output>
		</layer>
		<layer id="197" name="Constant_30752" type="Const" version="opset1">
			<data element_type="f32" shape="384, 384" offset="10477292" size="589824" />
			<output>
				<port id="0" precision="FP32">
					<dim>384</dim>
					<dim>384</dim>
				</port>
			</output>
		</layer>
		<layer id="198" name="/encoder/layer.1/attention/output/dense/MatMul" type="MatMul" version="opset1">
			<data transpose_a="false" transpose_b="true" />
			<input>
				<port id="0" precision="FP32">
					<dim>1</dim>
					<dim>197</dim>
					<dim>384</dim>
				</port>
				<port id="1" precision="FP32">
					<dim>384</dim>
					<dim>384</dim>
				</port>
			</input>
			<output>
				<port id="2" precision="FP32" names="/encoder/layer.1/attention/output/dense/MatMul_output_0">
					<dim>1</dim>
					<dim>197</dim>
					<dim>384</dim>
				</port>
			</output>
		</layer>
		<layer id="199" name="/encoder/layer.1/attention/output/dense/Add" type="Add" version="opset1">
			<data auto_broadcast="numpy" />
			<input>
				<port id="0" precision="FP32">
					<dim>1</dim>
					<dim>1</dim>
					<dim>384</dim>
				</port>
				<port id="1" precision="FP32">
					<dim>1</dim>
					<dim>197</dim>
					<dim>384</dim>
				</port>
			</input>
			<output>
				<port id="2" precision="FP32" names="/encoder/layer.1/attention/output/dense/Add_output_0">
					<dim>1</dim>
					<dim>197</dim>
					<dim>384</dim>
				</port>
			</output>
		</layer>
		<layer id="200" name="/encoder/layer.1/Add" type="Add" version="opset1">
			<data auto_broadcast="numpy" />
			<input>
				<port id="0" precision="FP32">
					<dim>1</dim>
					<dim>197</dim>
					<dim>384</dim>
				</port>
				<port id="1" precision="FP32">
					<dim>1</dim>
					<dim>197</dim>
					<dim>384</dim>
				</port>
			</input>
			<output>
				<port id="2" precision="FP32" names="/encoder/layer.1/Add_output_0">
					<dim>1</dim>
					<dim>197</dim>
					<dim>384</dim>
				</port>
			</output>
		</layer>
		<layer id="201" name="Constant_1092" type="Const" version="opset1">
			<data element_type="i64" shape="1" offset="130568" size="8" />
			<output>
				<port id="0" precision="I64">
					<dim>1</dim>
				</port>
			</output>
		</layer>
		<layer id="202" name="/encoder/layer.1/layernorm_after/Div" type="MVN" version="opset6">
			<data eps="9.999999960041972e-13" normalize_variance="true" eps_mode="INSIDE_SQRT" />
			<input>
				<port id="0" precision="FP32">
					<dim>1</dim>
					<dim>197</dim>
					<dim>384</dim>
				</port>
				<port id="1" precision="I64">
					<dim>1</dim>
				</port>
			</input>
			<output>
				<port id="2" precision="FP32" names="/encoder/layer.1/layernorm_after/Div_output_0">
					<dim>1</dim>
					<dim>197</dim>
					<dim>384</dim>
				</port>
			</output>
		</layer>
		<layer id="203" name="Constant_31347" type="Const" version="opset1">
			<data element_type="f32" shape="1, 1, 384" offset="11067116" size="1536" />
			<output>
				<port id="0" precision="FP32">
					<dim>1</dim>
					<dim>1</dim>
					<dim>384</dim>
				</port>
			</output>
		</layer>
		<layer id="204" name="/encoder/layer.1/layernorm_after/Mul" type="Multiply" version="opset1">
			<data auto_broadcast="numpy" />
			<input>
				<port id="0" precision="FP32">
					<dim>1</dim>
					<dim>197</dim>
					<dim>384</dim>
				</port>
				<port id="1" precision="FP32">
					<dim>1</dim>
					<dim>1</dim>
					<dim>384</dim>
				</port>
			</input>
			<output>
				<port id="2" precision="FP32" names="/encoder/layer.1/layernorm_after/Mul_output_0">
					<dim>1</dim>
					<dim>197</dim>
					<dim>384</dim>
				</port>
			</output>
		</layer>
		<layer id="205" name="Constant_31348" type="Const" version="opset1">
			<data element_type="f32" shape="1, 1, 384" offset="11068652" size="1536" />
			<output>
				<port id="0" precision="FP32">
					<dim>1</dim>
					<dim>1</dim>
					<dim>384</dim>
				</port>
			</output>
		</layer>
		<layer id="206" name="/encoder/layer.1/layernorm_after/Add_1" type="Add" version="opset1">
			<data auto_broadcast="numpy" />
			<input>
				<port id="0" precision="FP32">
					<dim>1</dim>
					<dim>197</dim>
					<dim>384</dim>
				</port>
				<port id="1" precision="FP32">
					<dim>1</dim>
					<dim>1</dim>
					<dim>384</dim>
				</port>
			</input>
			<output>
				<port id="2" precision="FP32" names="/encoder/layer.1/layernorm_after/Add_1_output_0">
					<dim>1</dim>
					<dim>197</dim>
					<dim>384</dim>
				</port>
			</output>
		</layer>
		<layer id="207" name="Constant_30760" type="Const" version="opset1">
			<data element_type="f32" shape="1536, 384" offset="11070188" size="2359296" />
			<output>
				<port id="0" precision="FP32">
					<dim>1536</dim>
					<dim>384</dim>
				</port>
			</output>
		</layer>
		<layer id="208" name="/encoder/layer.1/intermediate/dense/MatMul" type="MatMul" version="opset1">
			<data transpose_a="false" transpose_b="true" />
			<input>
				<port id="0" precision="FP32">
					<dim>1</dim>
					<dim>197</dim>
					<dim>384</dim>
				</port>
				<port id="1" precision="FP32">
					<dim>1536</dim>
					<dim>384</dim>
				</port>
			</input>
			<output>
				<port id="2" precision="FP32" names="/encoder/layer.1/intermediate/dense/MatMul_output_0">
					<dim>1</dim>
					<dim>197</dim>
					<dim>1536</dim>
				</port>
			</output>
		</layer>
		<layer id="209" name="/encoder/layer.1/intermediate/dense/Add" type="Add" version="opset1">
			<data auto_broadcast="numpy" />
			<input>
				<port id="0" precision="FP32">
					<dim>1</dim>
					<dim>1</dim>
					<dim>1536</dim>
				</port>
				<port id="1" precision="FP32">
					<dim>1</dim>
					<dim>197</dim>
					<dim>1536</dim>
				</port>
			</input>
			<output>
				<port id="2" precision="FP32" names="/encoder/layer.1/intermediate/dense/Add_output_0">
					<dim>1</dim>
					<dim>197</dim>
					<dim>1536</dim>
				</port>
			</output>
		</layer>
		<layer id="210" name="/encoder/layer.1/intermediate/intermediate_act_fn/Mul_1" type="Gelu" version="opset7">
			<data approximation_mode="ERF" />
			<input>
				<port id="0" precision="FP32">
					<dim>1</dim>
					<dim>197</dim>
					<dim>1536</dim>
				</port>
			</input>
			<output>
				<port id="1" precision="FP32" names="/encoder/layer.1/intermediate/intermediate_act_fn/Mul_1_output_0">
					<dim>1</dim>
					<dim>197</dim>
					<dim>1536</dim>
				</port>
			</output>
		</layer>
		<layer id="211" name="Constant_30768" type="Const" version="opset1">
			<data element_type="f32" shape="384, 1536" offset="13429484" size="2359296" />
			<output>
				<port id="0" precision="FP32">
					<dim>384</dim>
					<dim>1536</dim>
				</port>
			</output>
		</layer>
		<layer id="212" name="/encoder/layer.1/output/dense/MatMul" type="MatMul" version="opset1">
			<data transpose_a="false" transpose_b="true" />
			<input>
				<port id="0" precision="FP32">
					<dim>1</dim>
					<dim>197</dim>
					<dim>1536</dim>
				</port>
				<port id="1" precision="FP32">
					<dim>384</dim>
					<dim>1536</dim>
				</port>
			</input>
			<output>
				<port id="2" precision="FP32" names="/encoder/layer.1/output/dense/MatMul_output_0">
					<dim>1</dim>
					<dim>197</dim>
					<dim>384</dim>
				</port>
			</output>
		</layer>
		<layer id="213" name="/encoder/layer.1/output/dense/Add" type="Add" version="opset1">
			<data auto_broadcast="numpy" />
			<input>
				<port id="0" precision="FP32">
					<dim>1</dim>
					<dim>1</dim>
					<dim>384</dim>
				</port>
				<port id="1" precision="FP32">
					<dim>1</dim>
					<dim>197</dim>
					<dim>384</dim>
				</port>
			</input>
			<output>
				<port id="2" precision="FP32" names="/encoder/layer.1/output/dense/Add_output_0">
					<dim>1</dim>
					<dim>197</dim>
					<dim>384</dim>
				</port>
			</output>
		</layer>
		<layer id="214" name="/encoder/layer.1/output/Add" type="Add" version="opset1">
			<data auto_broadcast="numpy" />
			<input>
				<port id="0" precision="FP32">
					<dim>1</dim>
					<dim>197</dim>
					<dim>384</dim>
				</port>
				<port id="1" precision="FP32">
					<dim>1</dim>
					<dim>197</dim>
					<dim>384</dim>
				</port>
			</input>
			<output>
				<port id="2" precision="FP32" names="/encoder/layer.1/output/Add_output_0">
					<dim>1</dim>
					<dim>197</dim>
					<dim>384</dim>
				</port>
			</output>
		</layer>
		<layer id="215" name="Constant_1118" type="Const" version="opset1">
			<data element_type="i64" shape="1" offset="130568" size="8" />
			<output>
				<port id="0" precision="I64">
					<dim>1</dim>
				</port>
			</output>
		</layer>
		<layer id="216" name="/encoder/layer.2/layernorm_before/Div" type="MVN" version="opset6">
			<data eps="9.999999960041972e-13" normalize_variance="true" eps_mode="INSIDE_SQRT" />
			<input>
				<port id="0" precision="FP32">
					<dim>1</dim>
					<dim>197</dim>
					<dim>384</dim>
				</port>
				<port id="1" precision="I64">
					<dim>1</dim>
				</port>
			</input>
			<output>
				<port id="2" precision="FP32" names="/encoder/layer.2/layernorm_before/Div_output_0">
					<dim>1</dim>
					<dim>197</dim>
					<dim>384</dim>
				</port>
			</output>
		</layer>
		<layer id="217" name="Constant_31351" type="Const" version="opset1">
			<data element_type="f32" shape="1, 1, 384" offset="15788780" size="1536" />
			<output>
				<port id="0" precision="FP32">
					<dim>1</dim>
					<dim>1</dim>
					<dim>384</dim>
				</port>
			</output>
		</layer>
		<layer id="218" name="/encoder/layer.2/layernorm_before/Mul" type="Multiply" version="opset1">
			<data auto_broadcast="numpy" />
			<input>
				<port id="0" precision="FP32">
					<dim>1</dim>
					<dim>197</dim>
					<dim>384</dim>
				</port>
				<port id="1" precision="FP32">
					<dim>1</dim>
					<dim>1</dim>
					<dim>384</dim>
				</port>
			</input>
			<output>
				<port id="2" precision="FP32" names="/encoder/layer.2/layernorm_before/Mul_output_0">
					<dim>1</dim>
					<dim>197</dim>
					<dim>384</dim>
				</port>
			</output>
		</layer>
		<layer id="219" name="Constant_31352" type="Const" version="opset1">
			<data element_type="f32" shape="1, 1, 384" offset="15790316" size="1536" />
			<output>
				<port id="0" precision="FP32">
					<dim>1</dim>
					<dim>1</dim>
					<dim>384</dim>
				</port>
			</output>
		</layer>
		<layer id="220" name="/encoder/layer.2/layernorm_before/Add_1" type="Add" version="opset1">
			<data auto_broadcast="numpy" />
			<input>
				<port id="0" precision="FP32">
					<dim>1</dim>
					<dim>197</dim>
					<dim>384</dim>
				</port>
				<port id="1" precision="FP32">
					<dim>1</dim>
					<dim>1</dim>
					<dim>384</dim>
				</port>
			</input>
			<output>
				<port id="2" precision="FP32" names="/encoder/layer.2/layernorm_before/Add_1_output_0">
					<dim>1</dim>
					<dim>197</dim>
					<dim>384</dim>
				</port>
			</output>
		</layer>
		<layer id="221" name="Constant_30776" type="Const" version="opset1">
			<data element_type="f32" shape="384, 384" offset="15791852" size="589824" />
			<output>
				<port id="0" precision="FP32">
					<dim>384</dim>
					<dim>384</dim>
				</port>
			</output>
		</layer>
		<layer id="222" name="/encoder/layer.2/attention/attention/query/MatMul" type="MatMul" version="opset1">
			<data transpose_a="false" transpose_b="true" />
			<input>
				<port id="0" precision="FP32">
					<dim>1</dim>
					<dim>197</dim>
					<dim>384</dim>
				</port>
				<port id="1" precision="FP32">
					<dim>384</dim>
					<dim>384</dim>
				</port>
			</input>
			<output>
				<port id="2" precision="FP32" names="/encoder/layer.2/attention/attention/query/MatMul_output_0">
					<dim>1</dim>
					<dim>197</dim>
					<dim>384</dim>
				</port>
			</output>
		</layer>
		<layer id="223" name="/encoder/layer.2/attention/attention/query/Add" type="Add" version="opset1">
			<data auto_broadcast="numpy" />
			<input>
				<port id="0" precision="FP32">
					<dim>1</dim>
					<dim>1</dim>
					<dim>384</dim>
				</port>
				<port id="1" precision="FP32">
					<dim>1</dim>
					<dim>197</dim>
					<dim>384</dim>
				</port>
			</input>
			<output>
				<port id="2" precision="FP32" names="/encoder/layer.2/attention/attention/query/Add_output_0">
					<dim>1</dim>
					<dim>197</dim>
					<dim>384</dim>
				</port>
			</output>
		</layer>
		<layer id="224" name="/encoder/layer.2/attention/attention/Concat_2" type="Const" version="opset1">
			<data element_type="i64" shape="4" offset="2207336" size="32" />
			<output>
				<port id="0" precision="I64">
					<dim>4</dim>
				</port>
			</output>
		</layer>
		<layer id="225" name="/encoder/layer.2/attention/attention/Reshape_2" type="Reshape" version="opset1">
			<data special_zero="true" />
			<input>
				<port id="0" precision="FP32">
					<dim>1</dim>
					<dim>197</dim>
					<dim>384</dim>
				</port>
				<port id="1" precision="I64">
					<dim>4</dim>
				</port>
			</input>
			<output>
				<port id="2" precision="FP32" names="/encoder/layer.2/attention/attention/Reshape_2_output_0">
					<dim>1</dim>
					<dim>197</dim>
					<dim>6</dim>
					<dim>64</dim>
				</port>
			</output>
		</layer>
		<layer id="226" name="Constant_1328" type="Const" version="opset1">
			<data element_type="i64" shape="4" offset="2207368" size="32" />
			<output>
				<port id="0" precision="I64">
					<dim>4</dim>
				</port>
			</output>
		</layer>
		<layer id="227" name="/encoder/layer.2/attention/attention/Transpose_1" type="Transpose" version="opset1">
			<input>
				<port id="0" precision="FP32">
					<dim>1</dim>
					<dim>197</dim>
					<dim>6</dim>
					<dim>64</dim>
				</port>
				<port id="1" precision="I64">
					<dim>4</dim>
				</port>
			</input>
			<output>
				<port id="2" precision="FP32" names="/encoder/layer.2/attention/attention/Transpose_1_output_0">
					<dim>1</dim>
					<dim>6</dim>
					<dim>197</dim>
					<dim>64</dim>
				</port>
			</output>
		</layer>
		<layer id="228" name="/encoder/layer.2/attention/attention/Constant_14" type="Const" version="opset1">
			<data element_type="f32" shape="1" offset="2207400" size="4" />
			<output>
				<port id="0" precision="FP32" names="/encoder/layer.2/attention/attention/Constant_14_output_0">
					<dim>1</dim>
				</port>
			</output>
		</layer>
		<layer id="229" name="/encoder/layer.2/attention/attention/Shape_6" type="ShapeOf" version="opset3">
			<data output_type="i64" />
			<input>
				<port id="0" precision="FP32">
					<dim>1</dim>
					<dim>6</dim>
					<dim>197</dim>
					<dim>64</dim>
				</port>
			</input>
			<output>
				<port id="1" precision="I64" names="/encoder/layer.2/attention/attention/Shape_6_output_0">
					<dim>4</dim>
				</port>
			</output>
		</layer>
		<layer id="230" name="/encoder/layer.2/attention/attention/Constant_12" type="Const" version="opset1">
			<data element_type="i64" shape="1" offset="130568" size="8" />
			<output>
				<port id="0" precision="I64" names="/encoder/layer.2/attention/attention/Constant_12_output_0">
					<dim>1</dim>
				</port>
			</output>
		</layer>
		<layer id="231" name="/encoder/layer.2/attention/attention/Constant_13" type="Const" version="opset1">
			<data element_type="i64" shape="1" offset="2207404" size="8" />
			<output>
				<port id="0" precision="I64" names="/encoder/layer.2/attention/attention/Constant_13_output_0">
					<dim>1</dim>
				</port>
			</output>
		</layer>
		<layer id="232" name="Broadcast_1335" type="Const" version="opset1">
			<data element_type="i64" shape="1" offset="1311816" size="8" />
			<output>
				<port id="0" precision="I64">
					<dim>1</dim>
				</port>
			</output>
		</layer>
		<layer id="233" name="/encoder/layer.2/attention/attention/Slice" type="StridedSlice" version="opset1">
			<data begin_mask="0" end_mask="0" new_axis_mask="" shrink_axis_mask="" ellipsis_mask="" />
			<input>
				<port id="0" precision="I64">
					<dim>4</dim>
				</port>
				<port id="1" precision="I64">
					<dim>1</dim>
				</port>
				<port id="2" precision="I64">
					<dim>1</dim>
				</port>
				<port id="3" precision="I64">
					<dim>1</dim>
				</port>
			</input>
			<output>
				<port id="4" precision="I64" names="/encoder/layer.2/attention/attention/Slice_output_0">
					<dim>1</dim>
				</port>
			</output>
		</layer>
		<layer id="234" name="/encoder/layer.2/attention/attention/Cast" type="Convert" version="opset1">
			<data destination_type="f32" />
			<input>
				<port id="0" precision="I64">
					<dim>1</dim>
				</port>
			</input>
			<output>
				<port id="1" precision="FP32" names="/encoder/layer.2/attention/attention/Cast_output_0">
					<dim>1</dim>
				</port>
			</output>
		</layer>
		<layer id="235" name="/encoder/layer.2/attention/attention/Sqrt" type="Sqrt" version="opset1">
			<input>
				<port id="0" precision="FP32">
					<dim>1</dim>
				</port>
			</input>
			<output>
				<port id="1" precision="FP32" names="/encoder/layer.2/attention/attention/Sqrt_output_0">
					<dim>1</dim>
				</port>
			</output>
		</layer>
		<layer id="236" name="/encoder/layer.2/attention/attention/Div" type="Divide" version="opset1">
			<data auto_broadcast="numpy" m_pythondiv="true" />
			<input>
				<port id="0" precision="FP32">
					<dim>1</dim>
				</port>
				<port id="1" precision="FP32">
					<dim>1</dim>
				</port>
			</input>
			<output>
				<port id="2" precision="FP32" names="/encoder/layer.2/attention/attention/Cast_1_output_0,/encoder/layer.2/attention/attention/Div_output_0">
					<dim>1</dim>
				</port>
			</output>
		</layer>
		<layer id="237" name="/encoder/layer.2/attention/attention/Sqrt_1" type="Sqrt" version="opset1">
			<input>
				<port id="0" precision="FP32">
					<dim>1</dim>
				</port>
			</input>
			<output>
				<port id="1" precision="FP32" names="/encoder/layer.2/attention/attention/Sqrt_1_output_0">
					<dim>1</dim>
				</port>
			</output>
		</layer>
		<layer id="238" name="/encoder/layer.2/attention/attention/Mul" type="Multiply" version="opset1">
			<data auto_broadcast="numpy" />
			<input>
				<port id="0" precision="FP32">
					<dim>1</dim>
					<dim>6</dim>
					<dim>197</dim>
					<dim>64</dim>
				</port>
				<port id="1" precision="FP32">
					<dim>1</dim>
				</port>
			</input>
			<output>
				<port id="2" precision="FP32" names="/encoder/layer.2/attention/attention/Mul_output_0">
					<dim>1</dim>
					<dim>6</dim>
					<dim>197</dim>
					<dim>64</dim>
				</port>
			</output>
		</layer>
		<layer id="239" name="Constant_31354" type="Const" version="opset1">
			<data element_type="f32" shape="1, 1, 384" offset="16381676" size="1536" />
			<output>
				<port id="0" precision="FP32">
					<dim>1</dim>
					<dim>1</dim>
					<dim>384</dim>
				</port>
			</output>
		</layer>
		<layer id="240" name="Constant_30783" type="Const" version="opset1">
			<data element_type="f32" shape="384, 384" offset="16383212" size="589824" />
			<output>
				<port id="0" precision="FP32">
					<dim>384</dim>
					<dim>384</dim>
				</port>
			</output>
		</layer>
		<layer id="241" name="/encoder/layer.2/attention/attention/key/MatMul" type="MatMul" version="opset1">
			<data transpose_a="false" transpose_b="true" />
			<input>
				<port id="0" precision="FP32">
					<dim>1</dim>
					<dim>197</dim>
					<dim>384</dim>
				</port>
				<port id="1" precision="FP32">
					<dim>384</dim>
					<dim>384</dim>
				</port>
			</input>
			<output>
				<port id="2" precision="FP32" names="/encoder/layer.2/attention/attention/key/MatMul_output_0">
					<dim>1</dim>
					<dim>197</dim>
					<dim>384</dim>
				</port>
			</output>
		</layer>
		<layer id="242" name="/encoder/layer.2/attention/attention/key/Add" type="Add" version="opset1">
			<data auto_broadcast="numpy" />
			<input>
				<port id="0" precision="FP32">
					<dim>1</dim>
					<dim>1</dim>
					<dim>384</dim>
				</port>
				<port id="1" precision="FP32">
					<dim>1</dim>
					<dim>197</dim>
					<dim>384</dim>
				</port>
			</input>
			<output>
				<port id="2" precision="FP32" names="/encoder/layer.2/attention/attention/key/Add_output_0">
					<dim>1</dim>
					<dim>197</dim>
					<dim>384</dim>
				</port>
			</output>
		</layer>
		<layer id="243" name="/encoder/layer.2/attention/attention/Concat" type="Const" version="opset1">
			<data element_type="i64" shape="4" offset="2207336" size="32" />
			<output>
				<port id="0" precision="I64">
					<dim>4</dim>
				</port>
			</output>
		</layer>
		<layer id="244" name="/encoder/layer.2/attention/attention/Reshape" type="Reshape" version="opset1">
			<data special_zero="true" />
			<input>
				<port id="0" precision="FP32">
					<dim>1</dim>
					<dim>197</dim>
					<dim>384</dim>
				</port>
				<port id="1" precision="I64">
					<dim>4</dim>
				</port>
			</input>
			<output>
				<port id="2" precision="FP32" names="/encoder/layer.2/attention/attention/Reshape_output_0">
					<dim>1</dim>
					<dim>197</dim>
					<dim>6</dim>
					<dim>64</dim>
				</port>
			</output>
		</layer>
		<layer id="245" name="Constant_1358" type="Const" version="opset1">
			<data element_type="i64" shape="4" offset="2798772" size="32" />
			<output>
				<port id="0" precision="I64">
					<dim>4</dim>
				</port>
			</output>
		</layer>
		<layer id="246" name="/encoder/layer.2/attention/attention/Transpose_2" type="Transpose" version="opset1">
			<input>
				<port id="0" precision="FP32">
					<dim>1</dim>
					<dim>197</dim>
					<dim>6</dim>
					<dim>64</dim>
				</port>
				<port id="1" precision="I64">
					<dim>4</dim>
				</port>
			</input>
			<output>
				<port id="2" precision="FP32" names="/encoder/layer.2/attention/attention/Transpose_2_output_0">
					<dim>1</dim>
					<dim>6</dim>
					<dim>64</dim>
					<dim>197</dim>
				</port>
			</output>
		</layer>
		<layer id="247" name="/encoder/layer.2/attention/attention/Sqrt_2" type="Sqrt" version="opset1">
			<input>
				<port id="0" precision="FP32">
					<dim>1</dim>
				</port>
			</input>
			<output>
				<port id="1" precision="FP32" names="/encoder/layer.2/attention/attention/Sqrt_2_output_0">
					<dim>1</dim>
				</port>
			</output>
		</layer>
		<layer id="248" name="/encoder/layer.2/attention/attention/Mul_1" type="Multiply" version="opset1">
			<data auto_broadcast="numpy" />
			<input>
				<port id="0" precision="FP32">
					<dim>1</dim>
					<dim>6</dim>
					<dim>64</dim>
					<dim>197</dim>
				</port>
				<port id="1" precision="FP32">
					<dim>1</dim>
				</port>
			</input>
			<output>
				<port id="2" precision="FP32" names="/encoder/layer.2/attention/attention/Mul_1_output_0">
					<dim>1</dim>
					<dim>6</dim>
					<dim>64</dim>
					<dim>197</dim>
				</port>
			</output>
		</layer>
		<layer id="249" name="/encoder/layer.2/attention/attention/MatMul" type="MatMul" version="opset1">
			<data transpose_a="false" transpose_b="false" />
			<input>
				<port id="0" precision="FP32">
					<dim>1</dim>
					<dim>6</dim>
					<dim>197</dim>
					<dim>64</dim>
				</port>
				<port id="1" precision="FP32">
					<dim>1</dim>
					<dim>6</dim>
					<dim>64</dim>
					<dim>197</dim>
				</port>
			</input>
			<output>
				<port id="2" precision="FP32" names="/encoder/layer.2/attention/attention/MatMul_output_0">
					<dim>1</dim>
					<dim>6</dim>
					<dim>197</dim>
					<dim>197</dim>
				</port>
			</output>
		</layer>
		<layer id="250" name="/encoder/layer.2/attention/attention/Softmax" type="SoftMax" version="opset8">
			<data axis="-1" />
			<input>
				<port id="0" precision="FP32">
					<dim>1</dim>
					<dim>6</dim>
					<dim>197</dim>
					<dim>197</dim>
				</port>
			</input>
			<output>
				<port id="1" precision="FP32" names="/encoder/layer.2/attention/attention/Softmax_output_0">
					<dim>1</dim>
					<dim>6</dim>
					<dim>197</dim>
					<dim>197</dim>
				</port>
			</output>
		</layer>
		<layer id="251" name="Constant_31355" type="Const" version="opset1">
			<data element_type="f32" shape="1, 1, 384" offset="16973036" size="1536" />
			<output>
				<port id="0" precision="FP32">
					<dim>1</dim>
					<dim>1</dim>
					<dim>384</dim>
				</port>
			</output>
		</layer>
		<layer id="252" name="Constant_30790" type="Const" version="opset1">
			<data element_type="f32" shape="384, 384" offset="16974572" size="589824" />
			<output>
				<port id="0" precision="FP32">
					<dim>384</dim>
					<dim>384</dim>
				</port>
			</output>
		</layer>
		<layer id="253" name="/encoder/layer.2/attention/attention/value/MatMul" type="MatMul" version="opset1">
			<data transpose_a="false" transpose_b="true" />
			<input>
				<port id="0" precision="FP32">
					<dim>1</dim>
					<dim>197</dim>
					<dim>384</dim>
				</port>
				<port id="1" precision="FP32">
					<dim>384</dim>
					<dim>384</dim>
				</port>
			</input>
			<output>
				<port id="2" precision="FP32" names="/encoder/layer.2/attention/attention/value/MatMul_output_0">
					<dim>1</dim>
					<dim>197</dim>
					<dim>384</dim>
				</port>
			</output>
		</layer>
		<layer id="254" name="/encoder/layer.2/attention/attention/value/Add" type="Add" version="opset1">
			<data auto_broadcast="numpy" />
			<input>
				<port id="0" precision="FP32">
					<dim>1</dim>
					<dim>1</dim>
					<dim>384</dim>
				</port>
				<port id="1" precision="FP32">
					<dim>1</dim>
					<dim>197</dim>
					<dim>384</dim>
				</port>
			</input>
			<output>
				<port id="2" precision="FP32" names="/encoder/layer.2/attention/attention/value/Add_output_0">
					<dim>1</dim>
					<dim>197</dim>
					<dim>384</dim>
				</port>
			</output>
		</layer>
		<layer id="255" name="/encoder/layer.2/attention/attention/Concat_1" type="Const" version="opset1">
			<data element_type="i64" shape="4" offset="2207336" size="32" />
			<output>
				<port id="0" precision="I64">
					<dim>4</dim>
				</port>
			</output>
		</layer>
		<layer id="256" name="/encoder/layer.2/attention/attention/Reshape_1" type="Reshape" version="opset1">
			<data special_zero="true" />
			<input>
				<port id="0" precision="FP32">
					<dim>1</dim>
					<dim>197</dim>
					<dim>384</dim>
				</port>
				<port id="1" precision="I64">
					<dim>4</dim>
				</port>
			</input>
			<output>
				<port id="2" precision="FP32" names="/encoder/layer.2/attention/attention/Reshape_1_output_0">
					<dim>1</dim>
					<dim>197</dim>
					<dim>6</dim>
					<dim>64</dim>
				</port>
			</output>
		</layer>
		<layer id="257" name="Constant_1263" type="Const" version="opset1">
			<data element_type="i64" shape="4" offset="2207368" size="32" />
			<output>
				<port id="0" precision="I64">
					<dim>4</dim>
				</port>
			</output>
		</layer>
		<layer id="258" name="/encoder/layer.2/attention/attention/Transpose" type="Transpose" version="opset1">
			<input>
				<port id="0" precision="FP32">
					<dim>1</dim>
					<dim>197</dim>
					<dim>6</dim>
					<dim>64</dim>
				</port>
				<port id="1" precision="I64">
					<dim>4</dim>
				</port>
			</input>
			<output>
				<port id="2" precision="FP32" names="/encoder/layer.2/attention/attention/Transpose_output_0">
					<dim>1</dim>
					<dim>6</dim>
					<dim>197</dim>
					<dim>64</dim>
				</port>
			</output>
		</layer>
		<layer id="259" name="/encoder/layer.2/attention/attention/MatMul_1" type="MatMul" version="opset1">
			<data transpose_a="false" transpose_b="false" />
			<input>
				<port id="0" precision="FP32">
					<dim>1</dim>
					<dim>6</dim>
					<dim>197</dim>
					<dim>197</dim>
				</port>
				<port id="1" precision="FP32">
					<dim>1</dim>
					<dim>6</dim>
					<dim>197</dim>
					<dim>64</dim>
				</port>
			</input>
			<output>
				<port id="2" precision="FP32" names="/encoder/layer.2/attention/attention/MatMul_1_output_0">
					<dim>1</dim>
					<dim>6</dim>
					<dim>197</dim>
					<dim>64</dim>
				</port>
			</output>
		</layer>
		<layer id="260" name="Constant_1367" type="Const" version="opset1">
			<data element_type="i64" shape="4" offset="2207368" size="32" />
			<output>
				<port id="0" precision="I64">
					<dim>4</dim>
				</port>
			</output>
		</layer>
		<layer id="261" name="/encoder/layer.2/attention/attention/Transpose_3" type="Transpose" version="opset1">
			<input>
				<port id="0" precision="FP32">
					<dim>1</dim>
					<dim>6</dim>
					<dim>197</dim>
					<dim>64</dim>
				</port>
				<port id="1" precision="I64">
					<dim>4</dim>
				</port>
			</input>
			<output>
				<port id="2" precision="FP32" names="/encoder/layer.2/attention/attention/Transpose_3_output_0">
					<dim>1</dim>
					<dim>197</dim>
					<dim>6</dim>
					<dim>64</dim>
				</port>
			</output>
		</layer>
		<layer id="262" name="/encoder/layer.2/attention/attention/Concat_3" type="Const" version="opset1">
			<data element_type="i64" shape="3" offset="3390164" size="24" />
			<output>
				<port id="0" precision="I64">
					<dim>3</dim>
				</port>
			</output>
		</layer>
		<layer id="263" name="/encoder/layer.2/attention/attention/Reshape_3" type="Reshape" version="opset1">
			<data special_zero="true" />
			<input>
				<port id="0" precision="FP32">
					<dim>1</dim>
					<dim>197</dim>
					<dim>6</dim>
					<dim>64</dim>
				</port>
				<port id="1" precision="I64">
					<dim>3</dim>
				</port>
			</input>
			<output>
				<port id="2" precision="FP32" names="/encoder/layer.2/attention/attention/Reshape_3_output_0">
					<dim>1</dim>
					<dim>197</dim>
					<dim>384</dim>
				</port>
			</output>
		</layer>
		<layer id="264" name="Constant_30797" type="Const" version="opset1">
			<data element_type="f32" shape="384, 384" offset="17564396" size="589824" />
			<output>
				<port id="0" precision="FP32">
					<dim>384</dim>
					<dim>384</dim>
				</port>
			</output>
		</layer>
		<layer id="265" name="/encoder/layer.2/attention/output/dense/MatMul" type="MatMul" version="opset1">
			<data transpose_a="false" transpose_b="true" />
			<input>
				<port id="0" precision="FP32">
					<dim>1</dim>
					<dim>197</dim>
					<dim>384</dim>
				</port>
				<port id="1" precision="FP32">
					<dim>384</dim>
					<dim>384</dim>
				</port>
			</input>
			<output>
				<port id="2" precision="FP32" names="/encoder/layer.2/attention/output/dense/MatMul_output_0">
					<dim>1</dim>
					<dim>197</dim>
					<dim>384</dim>
				</port>
			</output>
		</layer>
		<layer id="266" name="/encoder/layer.2/attention/output/dense/Add" type="Add" version="opset1">
			<data auto_broadcast="numpy" />
			<input>
				<port id="0" precision="FP32">
					<dim>1</dim>
					<dim>1</dim>
					<dim>384</dim>
				</port>
				<port id="1" precision="FP32">
					<dim>1</dim>
					<dim>197</dim>
					<dim>384</dim>
				</port>
			</input>
			<output>
				<port id="2" precision="FP32" names="/encoder/layer.2/attention/output/dense/Add_output_0">
					<dim>1</dim>
					<dim>197</dim>
					<dim>384</dim>
				</port>
			</output>
		</layer>
		<layer id="267" name="/encoder/layer.2/Add" type="Add" version="opset1">
			<data auto_broadcast="numpy" />
			<input>
				<port id="0" precision="FP32">
					<dim>1</dim>
					<dim>197</dim>
					<dim>384</dim>
				</port>
				<port id="1" precision="FP32">
					<dim>1</dim>
					<dim>197</dim>
					<dim>384</dim>
				</port>
			</input>
			<output>
				<port id="2" precision="FP32" names="/encoder/layer.2/Add_output_0">
					<dim>1</dim>
					<dim>197</dim>
					<dim>384</dim>
				</port>
			</output>
		</layer>
		<layer id="268" name="Constant_1431" type="Const" version="opset1">
			<data element_type="i64" shape="1" offset="130568" size="8" />
			<output>
				<port id="0" precision="I64">
					<dim>1</dim>
				</port>
			</output>
		</layer>
		<layer id="269" name="/encoder/layer.2/layernorm_after/Div" type="MVN" version="opset6">
			<data eps="9.999999960041972e-13" normalize_variance="true" eps_mode="INSIDE_SQRT" />
			<input>
				<port id="0" precision="FP32">
					<dim>1</dim>
					<dim>197</dim>
					<dim>384</dim>
				</port>
				<port id="1" precision="I64">
					<dim>1</dim>
				</port>
			</input>
			<output>
				<port id="2" precision="FP32" names="/encoder/layer.2/layernorm_after/Div_output_0">
					<dim>1</dim>
					<dim>197</dim>
					<dim>384</dim>
				</port>
			</output>
		</layer>
		<layer id="270" name="Constant_31357" type="Const" version="opset1">
			<data element_type="f32" shape="1, 1, 384" offset="18154220" size="1536" />
			<output>
				<port id="0" precision="FP32">
					<dim>1</dim>
					<dim>1</dim>
					<dim>384</dim>
				</port>
			</output>
		</layer>
		<layer id="271" name="/encoder/layer.2/layernorm_after/Mul" type="Multiply" version="opset1">
			<data auto_broadcast="numpy" />
			<input>
				<port id="0" precision="FP32">
					<dim>1</dim>
					<dim>197</dim>
					<dim>384</dim>
				</port>
				<port id="1" precision="FP32">
					<dim>1</dim>
					<dim>1</dim>
					<dim>384</dim>
				</port>
			</input>
			<output>
				<port id="2" precision="FP32" names="/encoder/layer.2/layernorm_after/Mul_output_0">
					<dim>1</dim>
					<dim>197</dim>
					<dim>384</dim>
				</port>
			</output>
		</layer>
		<layer id="272" name="Constant_31358" type="Const" version="opset1">
			<data element_type="f32" shape="1, 1, 384" offset="18155756" size="1536" />
			<output>
				<port id="0" precision="FP32">
					<dim>1</dim>
					<dim>1</dim>
					<dim>384</dim>
				</port>
			</output>
		</layer>
		<layer id="273" name="/encoder/layer.2/layernorm_after/Add_1" type="Add" version="opset1">
			<data auto_broadcast="numpy" />
			<input>
				<port id="0" precision="FP32">
					<dim>1</dim>
					<dim>197</dim>
					<dim>384</dim>
				</port>
				<port id="1" precision="FP32">
					<dim>1</dim>
					<dim>1</dim>
					<dim>384</dim>
				</port>
			</input>
			<output>
				<port id="2" precision="FP32" names="/encoder/layer.2/layernorm_after/Add_1_output_0">
					<dim>1</dim>
					<dim>197</dim>
					<dim>384</dim>
				</port>
			</output>
		</layer>
		<layer id="274" name="Constant_30805" type="Const" version="opset1">
			<data element_type="f32" shape="1536, 384" offset="18157292" size="2359296" />
			<output>
				<port id="0" precision="FP32">
					<dim>1536</dim>
					<dim>384</dim>
				</port>
			</output>
		</layer>
		<layer id="275" name="/encoder/layer.2/intermediate/dense/MatMul" type="MatMul" version="opset1">
			<data transpose_a="false" transpose_b="true" />
			<input>
				<port id="0" precision="FP32">
					<dim>1</dim>
					<dim>197</dim>
					<dim>384</dim>
				</port>
				<port id="1" precision="FP32">
					<dim>1536</dim>
					<dim>384</dim>
				</port>
			</input>
			<output>
				<port id="2" precision="FP32" names="/encoder/layer.2/intermediate/dense/MatMul_output_0">
					<dim>1</dim>
					<dim>197</dim>
					<dim>1536</dim>
				</port>
			</output>
		</layer>
		<layer id="276" name="/encoder/layer.2/intermediate/dense/Add" type="Add" version="opset1">
			<data auto_broadcast="numpy" />
			<input>
				<port id="0" precision="FP32">
					<dim>1</dim>
					<dim>1</dim>
					<dim>1536</dim>
				</port>
				<port id="1" precision="FP32">
					<dim>1</dim>
					<dim>197</dim>
					<dim>1536</dim>
				</port>
			</input>
			<output>
				<port id="2" precision="FP32" names="/encoder/layer.2/intermediate/dense/Add_output_0">
					<dim>1</dim>
					<dim>197</dim>
					<dim>1536</dim>
				</port>
			</output>
		</layer>
		<layer id="277" name="/encoder/layer.2/intermediate/intermediate_act_fn/Mul_1" type="Gelu" version="opset7">
			<data approximation_mode="ERF" />
			<input>
				<port id="0" precision="FP32">
					<dim>1</dim>
					<dim>197</dim>
					<dim>1536</dim>
				</port>
			</input>
			<output>
				<port id="1" precision="FP32" names="/encoder/layer.2/intermediate/intermediate_act_fn/Mul_1_output_0">
					<dim>1</dim>
					<dim>197</dim>
					<dim>1536</dim>
				</port>
			</output>
		</layer>
		<layer id="278" name="Constant_30813" type="Const" version="opset1">
			<data element_type="f32" shape="384, 1536" offset="20516588" size="2359296" />
			<output>
				<port id="0" precision="FP32">
					<dim>384</dim>
					<dim>1536</dim>
				</port>
			</output>
		</layer>
		<layer id="279" name="/encoder/layer.2/output/dense/MatMul" type="MatMul" version="opset1">
			<data transpose_a="false" transpose_b="true" />
			<input>
				<port id="0" precision="FP32">
					<dim>1</dim>
					<dim>197</dim>
					<dim>1536</dim>
				</port>
				<port id="1" precision="FP32">
					<dim>384</dim>
					<dim>1536</dim>
				</port>
			</input>
			<output>
				<port id="2" precision="FP32" names="/encoder/layer.2/output/dense/MatMul_output_0">
					<dim>1</dim>
					<dim>197</dim>
					<dim>384</dim>
				</port>
			</output>
		</layer>
		<layer id="280" name="/encoder/layer.2/output/dense/Add" type="Add" version="opset1">
			<data auto_broadcast="numpy" />
			<input>
				<port id="0" precision="FP32">
					<dim>1</dim>
					<dim>1</dim>
					<dim>384</dim>
				</port>
				<port id="1" precision="FP32">
					<dim>1</dim>
					<dim>197</dim>
					<dim>384</dim>
				</port>
			</input>
			<output>
				<port id="2" precision="FP32" names="/encoder/layer.2/output/dense/Add_output_0">
					<dim>1</dim>
					<dim>197</dim>
					<dim>384</dim>
				</port>
			</output>
		</layer>
		<layer id="281" name="/encoder/layer.2/output/Add" type="Add" version="opset1">
			<data auto_broadcast="numpy" />
			<input>
				<port id="0" precision="FP32">
					<dim>1</dim>
					<dim>197</dim>
					<dim>384</dim>
				</port>
				<port id="1" precision="FP32">
					<dim>1</dim>
					<dim>197</dim>
					<dim>384</dim>
				</port>
			</input>
			<output>
				<port id="2" precision="FP32" names="/encoder/layer.2/output/Add_output_0">
					<dim>1</dim>
					<dim>197</dim>
					<dim>384</dim>
				</port>
			</output>
		</layer>
		<layer id="282" name="Constant_1457" type="Const" version="opset1">
			<data element_type="i64" shape="1" offset="130568" size="8" />
			<output>
				<port id="0" precision="I64">
					<dim>1</dim>
				</port>
			</output>
		</layer>
		<layer id="283" name="/encoder/layer.3/layernorm_before/Div" type="MVN" version="opset6">
			<data eps="9.999999960041972e-13" normalize_variance="true" eps_mode="INSIDE_SQRT" />
			<input>
				<port id="0" precision="FP32">
					<dim>1</dim>
					<dim>197</dim>
					<dim>384</dim>
				</port>
				<port id="1" precision="I64">
					<dim>1</dim>
				</port>
			</input>
			<output>
				<port id="2" precision="FP32" names="/encoder/layer.3/layernorm_before/Div_output_0">
					<dim>1</dim>
					<dim>197</dim>
					<dim>384</dim>
				</port>
			</output>
		</layer>
		<layer id="284" name="Constant_31361" type="Const" version="opset1">
			<data element_type="f32" shape="1, 1, 384" offset="22875884" size="1536" />
			<output>
				<port id="0" precision="FP32">
					<dim>1</dim>
					<dim>1</dim>
					<dim>384</dim>
				</port>
			</output>
		</layer>
		<layer id="285" name="/encoder/layer.3/layernorm_before/Mul" type="Multiply" version="opset1">
			<data auto_broadcast="numpy" />
			<input>
				<port id="0" precision="FP32">
					<dim>1</dim>
					<dim>197</dim>
					<dim>384</dim>
				</port>
				<port id="1" precision="FP32">
					<dim>1</dim>
					<dim>1</dim>
					<dim>384</dim>
				</port>
			</input>
			<output>
				<port id="2" precision="FP32" names="/encoder/layer.3/layernorm_before/Mul_output_0">
					<dim>1</dim>
					<dim>197</dim>
					<dim>384</dim>
				</port>
			</output>
		</layer>
		<layer id="286" name="Constant_31362" type="Const" version="opset1">
			<data element_type="f32" shape="1, 1, 384" offset="22877420" size="1536" />
			<output>
				<port id="0" precision="FP32">
					<dim>1</dim>
					<dim>1</dim>
					<dim>384</dim>
				</port>
			</output>
		</layer>
		<layer id="287" name="/encoder/layer.3/layernorm_before/Add_1" type="Add" version="opset1">
			<data auto_broadcast="numpy" />
			<input>
				<port id="0" precision="FP32">
					<dim>1</dim>
					<dim>197</dim>
					<dim>384</dim>
				</port>
				<port id="1" precision="FP32">
					<dim>1</dim>
					<dim>1</dim>
					<dim>384</dim>
				</port>
			</input>
			<output>
				<port id="2" precision="FP32" names="/encoder/layer.3/layernorm_before/Add_1_output_0">
					<dim>1</dim>
					<dim>197</dim>
					<dim>384</dim>
				</port>
			</output>
		</layer>
		<layer id="288" name="Constant_30821" type="Const" version="opset1">
			<data element_type="f32" shape="384, 384" offset="22878956" size="589824" />
			<output>
				<port id="0" precision="FP32">
					<dim>384</dim>
					<dim>384</dim>
				</port>
			</output>
		</layer>
		<layer id="289" name="/encoder/layer.3/attention/attention/query/MatMul" type="MatMul" version="opset1">
			<data transpose_a="false" transpose_b="true" />
			<input>
				<port id="0" precision="FP32">
					<dim>1</dim>
					<dim>197</dim>
					<dim>384</dim>
				</port>
				<port id="1" precision="FP32">
					<dim>384</dim>
					<dim>384</dim>
				</port>
			</input>
			<output>
				<port id="2" precision="FP32" names="/encoder/layer.3/attention/attention/query/MatMul_output_0">
					<dim>1</dim>
					<dim>197</dim>
					<dim>384</dim>
				</port>
			</output>
		</layer>
		<layer id="290" name="/encoder/layer.3/attention/attention/query/Add" type="Add" version="opset1">
			<data auto_broadcast="numpy" />
			<input>
				<port id="0" precision="FP32">
					<dim>1</dim>
					<dim>1</dim>
					<dim>384</dim>
				</port>
				<port id="1" precision="FP32">
					<dim>1</dim>
					<dim>197</dim>
					<dim>384</dim>
				</port>
			</input>
			<output>
				<port id="2" precision="FP32" names="/encoder/layer.3/attention/attention/query/Add_output_0">
					<dim>1</dim>
					<dim>197</dim>
					<dim>384</dim>
				</port>
			</output>
		</layer>
		<layer id="291" name="/encoder/layer.3/attention/attention/Concat_2" type="Const" version="opset1">
			<data element_type="i64" shape="4" offset="2207336" size="32" />
			<output>
				<port id="0" precision="I64">
					<dim>4</dim>
				</port>
			</output>
		</layer>
		<layer id="292" name="/encoder/layer.3/attention/attention/Reshape_2" type="Reshape" version="opset1">
			<data special_zero="true" />
			<input>
				<port id="0" precision="FP32">
					<dim>1</dim>
					<dim>197</dim>
					<dim>384</dim>
				</port>
				<port id="1" precision="I64">
					<dim>4</dim>
				</port>
			</input>
			<output>
				<port id="2" precision="FP32" names="/encoder/layer.3/attention/attention/Reshape_2_output_0">
					<dim>1</dim>
					<dim>197</dim>
					<dim>6</dim>
					<dim>64</dim>
				</port>
			</output>
		</layer>
		<layer id="293" name="Constant_1667" type="Const" version="opset1">
			<data element_type="i64" shape="4" offset="2207368" size="32" />
			<output>
				<port id="0" precision="I64">
					<dim>4</dim>
				</port>
			</output>
		</layer>
		<layer id="294" name="/encoder/layer.3/attention/attention/Transpose_1" type="Transpose" version="opset1">
			<input>
				<port id="0" precision="FP32">
					<dim>1</dim>
					<dim>197</dim>
					<dim>6</dim>
					<dim>64</dim>
				</port>
				<port id="1" precision="I64">
					<dim>4</dim>
				</port>
			</input>
			<output>
				<port id="2" precision="FP32" names="/encoder/layer.3/attention/attention/Transpose_1_output_0">
					<dim>1</dim>
					<dim>6</dim>
					<dim>197</dim>
					<dim>64</dim>
				</port>
			</output>
		</layer>
		<layer id="295" name="/encoder/layer.3/attention/attention/Constant_14" type="Const" version="opset1">
			<data element_type="f32" shape="1" offset="2207400" size="4" />
			<output>
				<port id="0" precision="FP32" names="/encoder/layer.3/attention/attention/Constant_14_output_0">
					<dim>1</dim>
				</port>
			</output>
		</layer>
		<layer id="296" name="/encoder/layer.3/attention/attention/Shape_6" type="ShapeOf" version="opset3">
			<data output_type="i64" />
			<input>
				<port id="0" precision="FP32">
					<dim>1</dim>
					<dim>6</dim>
					<dim>197</dim>
					<dim>64</dim>
				</port>
			</input>
			<output>
				<port id="1" precision="I64" names="/encoder/layer.3/attention/attention/Shape_6_output_0">
					<dim>4</dim>
				</port>
			</output>
		</layer>
		<layer id="297" name="/encoder/layer.3/attention/attention/Constant_12" type="Const" version="opset1">
			<data element_type="i64" shape="1" offset="130568" size="8" />
			<output>
				<port id="0" precision="I64" names="/encoder/layer.3/attention/attention/Constant_12_output_0">
					<dim>1</dim>
				</port>
			</output>
		</layer>
		<layer id="298" name="/encoder/layer.3/attention/attention/Constant_13" type="Const" version="opset1">
			<data element_type="i64" shape="1" offset="2207404" size="8" />
			<output>
				<port id="0" precision="I64" names="/encoder/layer.3/attention/attention/Constant_13_output_0">
					<dim>1</dim>
				</port>
			</output>
		</layer>
		<layer id="299" name="Broadcast_1674" type="Const" version="opset1">
			<data element_type="i64" shape="1" offset="1311816" size="8" />
			<output>
				<port id="0" precision="I64">
					<dim>1</dim>
				</port>
			</output>
		</layer>
		<layer id="300" name="/encoder/layer.3/attention/attention/Slice" type="StridedSlice" version="opset1">
			<data begin_mask="0" end_mask="0" new_axis_mask="" shrink_axis_mask="" ellipsis_mask="" />
			<input>
				<port id="0" precision="I64">
					<dim>4</dim>
				</port>
				<port id="1" precision="I64">
					<dim>1</dim>
				</port>
				<port id="2" precision="I64">
					<dim>1</dim>
				</port>
				<port id="3" precision="I64">
					<dim>1</dim>
				</port>
			</input>
			<output>
				<port id="4" precision="I64" names="/encoder/layer.3/attention/attention/Slice_output_0">
					<dim>1</dim>
				</port>
			</output>
		</layer>
		<layer id="301" name="/encoder/layer.3/attention/attention/Cast" type="Convert" version="opset1">
			<data destination_type="f32" />
			<input>
				<port id="0" precision="I64">
					<dim>1</dim>
				</port>
			</input>
			<output>
				<port id="1" precision="FP32" names="/encoder/layer.3/attention/attention/Cast_output_0">
					<dim>1</dim>
				</port>
			</output>
		</layer>
		<layer id="302" name="/encoder/layer.3/attention/attention/Sqrt" type="Sqrt" version="opset1">
			<input>
				<port id="0" precision="FP32">
					<dim>1</dim>
				</port>
			</input>
			<output>
				<port id="1" precision="FP32" names="/encoder/layer.3/attention/attention/Sqrt_output_0">
					<dim>1</dim>
				</port>
			</output>
		</layer>
		<layer id="303" name="/encoder/layer.3/attention/attention/Div" type="Divide" version="opset1">
			<data auto_broadcast="numpy" m_pythondiv="true" />
			<input>
				<port id="0" precision="FP32">
					<dim>1</dim>
				</port>
				<port id="1" precision="FP32">
					<dim>1</dim>
				</port>
			</input>
			<output>
				<port id="2" precision="FP32" names="/encoder/layer.3/attention/attention/Cast_1_output_0,/encoder/layer.3/attention/attention/Div_output_0">
					<dim>1</dim>
				</port>
			</output>
		</layer>
		<layer id="304" name="/encoder/layer.3/attention/attention/Sqrt_1" type="Sqrt" version="opset1">
			<input>
				<port id="0" precision="FP32">
					<dim>1</dim>
				</port>
			</input>
			<output>
				<port id="1" precision="FP32" names="/encoder/layer.3/attention/attention/Sqrt_1_output_0">
					<dim>1</dim>
				</port>
			</output>
		</layer>
		<layer id="305" name="/encoder/layer.3/attention/attention/Mul" type="Multiply" version="opset1">
			<data auto_broadcast="numpy" />
			<input>
				<port id="0" precision="FP32">
					<dim>1</dim>
					<dim>6</dim>
					<dim>197</dim>
					<dim>64</dim>
				</port>
				<port id="1" precision="FP32">
					<dim>1</dim>
				</port>
			</input>
			<output>
				<port id="2" precision="FP32" names="/encoder/layer.3/attention/attention/Mul_output_0">
					<dim>1</dim>
					<dim>6</dim>
					<dim>197</dim>
					<dim>64</dim>
				</port>
			</output>
		</layer>
		<layer id="306" name="Constant_31364" type="Const" version="opset1">
			<data element_type="f32" shape="1, 1, 384" offset="23468780" size="1536" />
			<output>
				<port id="0" precision="FP32">
					<dim>1</dim>
					<dim>1</dim>
					<dim>384</dim>
				</port>
			</output>
		</layer>
		<layer id="307" name="Constant_30828" type="Const" version="opset1">
			<data element_type="f32" shape="384, 384" offset="23470316" size="589824" />
			<output>
				<port id="0" precision="FP32">
					<dim>384</dim>
					<dim>384</dim>
				</port>
			</output>
		</layer>
		<layer id="308" name="/encoder/layer.3/attention/attention/key/MatMul" type="MatMul" version="opset1">
			<data transpose_a="false" transpose_b="true" />
			<input>
				<port id="0" precision="FP32">
					<dim>1</dim>
					<dim>197</dim>
					<dim>384</dim>
				</port>
				<port id="1" precision="FP32">
					<dim>384</dim>
					<dim>384</dim>
				</port>
			</input>
			<output>
				<port id="2" precision="FP32" names="/encoder/layer.3/attention/attention/key/MatMul_output_0">
					<dim>1</dim>
					<dim>197</dim>
					<dim>384</dim>
				</port>
			</output>
		</layer>
		<layer id="309" name="/encoder/layer.3/attention/attention/key/Add" type="Add" version="opset1">
			<data auto_broadcast="numpy" />
			<input>
				<port id="0" precision="FP32">
					<dim>1</dim>
					<dim>1</dim>
					<dim>384</dim>
				</port>
				<port id="1" precision="FP32">
					<dim>1</dim>
					<dim>197</dim>
					<dim>384</dim>
				</port>
			</input>
			<output>
				<port id="2" precision="FP32" names="/encoder/layer.3/attention/attention/key/Add_output_0">
					<dim>1</dim>
					<dim>197</dim>
					<dim>384</dim>
				</port>
			</output>
		</layer>
		<layer id="310" name="/encoder/layer.3/attention/attention/Concat" type="Const" version="opset1">
			<data element_type="i64" shape="4" offset="2207336" size="32" />
			<output>
				<port id="0" precision="I64">
					<dim>4</dim>
				</port>
			</output>
		</layer>
		<layer id="311" name="/encoder/layer.3/attention/attention/Reshape" type="Reshape" version="opset1">
			<data special_zero="true" />
			<input>
				<port id="0" precision="FP32">
					<dim>1</dim>
					<dim>197</dim>
					<dim>384</dim>
				</port>
				<port id="1" precision="I64">
					<dim>4</dim>
				</port>
			</input>
			<output>
				<port id="2" precision="FP32" names="/encoder/layer.3/attention/attention/Reshape_output_0">
					<dim>1</dim>
					<dim>197</dim>
					<dim>6</dim>
					<dim>64</dim>
				</port>
			</output>
		</layer>
		<layer id="312" name="Constant_1697" type="Const" version="opset1">
			<data element_type="i64" shape="4" offset="2798772" size="32" />
			<output>
				<port id="0" precision="I64">
					<dim>4</dim>
				</port>
			</output>
		</layer>
		<layer id="313" name="/encoder/layer.3/attention/attention/Transpose_2" type="Transpose" version="opset1">
			<input>
				<port id="0" precision="FP32">
					<dim>1</dim>
					<dim>197</dim>
					<dim>6</dim>
					<dim>64</dim>
				</port>
				<port id="1" precision="I64">
					<dim>4</dim>
				</port>
			</input>
			<output>
				<port id="2" precision="FP32" names="/encoder/layer.3/attention/attention/Transpose_2_output_0">
					<dim>1</dim>
					<dim>6</dim>
					<dim>64</dim>
					<dim>197</dim>
				</port>
			</output>
		</layer>
		<layer id="314" name="/encoder/layer.3/attention/attention/Sqrt_2" type="Sqrt" version="opset1">
			<input>
				<port id="0" precision="FP32">
					<dim>1</dim>
				</port>
			</input>
			<output>
				<port id="1" precision="FP32" names="/encoder/layer.3/attention/attention/Sqrt_2_output_0">
					<dim>1</dim>
				</port>
			</output>
		</layer>
		<layer id="315" name="/encoder/layer.3/attention/attention/Mul_1" type="Multiply" version="opset1">
			<data auto_broadcast="numpy" />
			<input>
				<port id="0" precision="FP32">
					<dim>1</dim>
					<dim>6</dim>
					<dim>64</dim>
					<dim>197</dim>
				</port>
				<port id="1" precision="FP32">
					<dim>1</dim>
				</port>
			</input>
			<output>
				<port id="2" precision="FP32" names="/encoder/layer.3/attention/attention/Mul_1_output_0">
					<dim>1</dim>
					<dim>6</dim>
					<dim>64</dim>
					<dim>197</dim>
				</port>
			</output>
		</layer>
		<layer id="316" name="/encoder/layer.3/attention/attention/MatMul" type="MatMul" version="opset1">
			<data transpose_a="false" transpose_b="false" />
			<input>
				<port id="0" precision="FP32">
					<dim>1</dim>
					<dim>6</dim>
					<dim>197</dim>
					<dim>64</dim>
				</port>
				<port id="1" precision="FP32">
					<dim>1</dim>
					<dim>6</dim>
					<dim>64</dim>
					<dim>197</dim>
				</port>
			</input>
			<output>
				<port id="2" precision="FP32" names="/encoder/layer.3/attention/attention/MatMul_output_0">
					<dim>1</dim>
					<dim>6</dim>
					<dim>197</dim>
					<dim>197</dim>
				</port>
			</output>
		</layer>
		<layer id="317" name="/encoder/layer.3/attention/attention/Softmax" type="SoftMax" version="opset8">
			<data axis="-1" />
			<input>
				<port id="0" precision="FP32">
					<dim>1</dim>
					<dim>6</dim>
					<dim>197</dim>
					<dim>197</dim>
				</port>
			</input>
			<output>
				<port id="1" precision="FP32" names="/encoder/layer.3/attention/attention/Softmax_output_0">
					<dim>1</dim>
					<dim>6</dim>
					<dim>197</dim>
					<dim>197</dim>
				</port>
			</output>
		</layer>
		<layer id="318" name="Constant_31365" type="Const" version="opset1">
			<data element_type="f32" shape="1, 1, 384" offset="24060140" size="1536" />
			<output>
				<port id="0" precision="FP32">
					<dim>1</dim>
					<dim>1</dim>
					<dim>384</dim>
				</port>
			</output>
		</layer>
		<layer id="319" name="Constant_30835" type="Const" version="opset1">
			<data element_type="f32" shape="384, 384" offset="24061676" size="589824" />
			<output>
				<port id="0" precision="FP32">
					<dim>384</dim>
					<dim>384</dim>
				</port>
			</output>
		</layer>
		<layer id="320" name="/encoder/layer.3/attention/attention/value/MatMul" type="MatMul" version="opset1">
			<data transpose_a="false" transpose_b="true" />
			<input>
				<port id="0" precision="FP32">
					<dim>1</dim>
					<dim>197</dim>
					<dim>384</dim>
				</port>
				<port id="1" precision="FP32">
					<dim>384</dim>
					<dim>384</dim>
				</port>
			</input>
			<output>
				<port id="2" precision="FP32" names="/encoder/layer.3/attention/attention/value/MatMul_output_0">
					<dim>1</dim>
					<dim>197</dim>
					<dim>384</dim>
				</port>
			</output>
		</layer>
		<layer id="321" name="/encoder/layer.3/attention/attention/value/Add" type="Add" version="opset1">
			<data auto_broadcast="numpy" />
			<input>
				<port id="0" precision="FP32">
					<dim>1</dim>
					<dim>1</dim>
					<dim>384</dim>
				</port>
				<port id="1" precision="FP32">
					<dim>1</dim>
					<dim>197</dim>
					<dim>384</dim>
				</port>
			</input>
			<output>
				<port id="2" precision="FP32" names="/encoder/layer.3/attention/attention/value/Add_output_0">
					<dim>1</dim>
					<dim>197</dim>
					<dim>384</dim>
				</port>
			</output>
		</layer>
		<layer id="322" name="/encoder/layer.3/attention/attention/Concat_1" type="Const" version="opset1">
			<data element_type="i64" shape="4" offset="2207336" size="32" />
			<output>
				<port id="0" precision="I64">
					<dim>4</dim>
				</port>
			</output>
		</layer>
		<layer id="323" name="/encoder/layer.3/attention/attention/Reshape_1" type="Reshape" version="opset1">
			<data special_zero="true" />
			<input>
				<port id="0" precision="FP32">
					<dim>1</dim>
					<dim>197</dim>
					<dim>384</dim>
				</port>
				<port id="1" precision="I64">
					<dim>4</dim>
				</port>
			</input>
			<output>
				<port id="2" precision="FP32" names="/encoder/layer.3/attention/attention/Reshape_1_output_0">
					<dim>1</dim>
					<dim>197</dim>
					<dim>6</dim>
					<dim>64</dim>
				</port>
			</output>
		</layer>
		<layer id="324" name="Constant_1602" type="Const" version="opset1">
			<data element_type="i64" shape="4" offset="2207368" size="32" />
			<output>
				<port id="0" precision="I64">
					<dim>4</dim>
				</port>
			</output>
		</layer>
		<layer id="325" name="/encoder/layer.3/attention/attention/Transpose" type="Transpose" version="opset1">
			<input>
				<port id="0" precision="FP32">
					<dim>1</dim>
					<dim>197</dim>
					<dim>6</dim>
					<dim>64</dim>
				</port>
				<port id="1" precision="I64">
					<dim>4</dim>
				</port>
			</input>
			<output>
				<port id="2" precision="FP32" names="/encoder/layer.3/attention/attention/Transpose_output_0">
					<dim>1</dim>
					<dim>6</dim>
					<dim>197</dim>
					<dim>64</dim>
				</port>
			</output>
		</layer>
		<layer id="326" name="/encoder/layer.3/attention/attention/MatMul_1" type="MatMul" version="opset1">
			<data transpose_a="false" transpose_b="false" />
			<input>
				<port id="0" precision="FP32">
					<dim>1</dim>
					<dim>6</dim>
					<dim>197</dim>
					<dim>197</dim>
				</port>
				<port id="1" precision="FP32">
					<dim>1</dim>
					<dim>6</dim>
					<dim>197</dim>
					<dim>64</dim>
				</port>
			</input>
			<output>
				<port id="2" precision="FP32" names="/encoder/layer.3/attention/attention/MatMul_1_output_0">
					<dim>1</dim>
					<dim>6</dim>
					<dim>197</dim>
					<dim>64</dim>
				</port>
			</output>
		</layer>
		<layer id="327" name="Constant_1706" type="Const" version="opset1">
			<data element_type="i64" shape="4" offset="2207368" size="32" />
			<output>
				<port id="0" precision="I64">
					<dim>4</dim>
				</port>
			</output>
		</layer>
		<layer id="328" name="/encoder/layer.3/attention/attention/Transpose_3" type="Transpose" version="opset1">
			<input>
				<port id="0" precision="FP32">
					<dim>1</dim>
					<dim>6</dim>
					<dim>197</dim>
					<dim>64</dim>
				</port>
				<port id="1" precision="I64">
					<dim>4</dim>
				</port>
			</input>
			<output>
				<port id="2" precision="FP32" names="/encoder/layer.3/attention/attention/Transpose_3_output_0">
					<dim>1</dim>
					<dim>197</dim>
					<dim>6</dim>
					<dim>64</dim>
				</port>
			</output>
		</layer>
		<layer id="329" name="/encoder/layer.3/attention/attention/Concat_3" type="Const" version="opset1">
			<data element_type="i64" shape="3" offset="3390164" size="24" />
			<output>
				<port id="0" precision="I64">
					<dim>3</dim>
				</port>
			</output>
		</layer>
		<layer id="330" name="/encoder/layer.3/attention/attention/Reshape_3" type="Reshape" version="opset1">
			<data special_zero="true" />
			<input>
				<port id="0" precision="FP32">
					<dim>1</dim>
					<dim>197</dim>
					<dim>6</dim>
					<dim>64</dim>
				</port>
				<port id="1" precision="I64">
					<dim>3</dim>
				</port>
			</input>
			<output>
				<port id="2" precision="FP32" names="/encoder/layer.3/attention/attention/Reshape_3_output_0">
					<dim>1</dim>
					<dim>197</dim>
					<dim>384</dim>
				</port>
			</output>
		</layer>
		<layer id="331" name="Constant_30842" type="Const" version="opset1">
			<data element_type="f32" shape="384, 384" offset="24651500" size="589824" />
			<output>
				<port id="0" precision="FP32">
					<dim>384</dim>
					<dim>384</dim>
				</port>
			</output>
		</layer>
		<layer id="332" name="/encoder/layer.3/attention/output/dense/MatMul" type="MatMul" version="opset1">
			<data transpose_a="false" transpose_b="true" />
			<input>
				<port id="0" precision="FP32">
					<dim>1</dim>
					<dim>197</dim>
					<dim>384</dim>
				</port>
				<port id="1" precision="FP32">
					<dim>384</dim>
					<dim>384</dim>
				</port>
			</input>
			<output>
				<port id="2" precision="FP32" names="/encoder/layer.3/attention/output/dense/MatMul_output_0">
					<dim>1</dim>
					<dim>197</dim>
					<dim>384</dim>
				</port>
			</output>
		</layer>
		<layer id="333" name="/encoder/layer.3/attention/output/dense/Add" type="Add" version="opset1">
			<data auto_broadcast="numpy" />
			<input>
				<port id="0" precision="FP32">
					<dim>1</dim>
					<dim>1</dim>
					<dim>384</dim>
				</port>
				<port id="1" precision="FP32">
					<dim>1</dim>
					<dim>197</dim>
					<dim>384</dim>
				</port>
			</input>
			<output>
				<port id="2" precision="FP32" names="/encoder/layer.3/attention/output/dense/Add_output_0">
					<dim>1</dim>
					<dim>197</dim>
					<dim>384</dim>
				</port>
			</output>
		</layer>
		<layer id="334" name="/encoder/layer.3/Add" type="Add" version="opset1">
			<data auto_broadcast="numpy" />
			<input>
				<port id="0" precision="FP32">
					<dim>1</dim>
					<dim>197</dim>
					<dim>384</dim>
				</port>
				<port id="1" precision="FP32">
					<dim>1</dim>
					<dim>197</dim>
					<dim>384</dim>
				</port>
			</input>
			<output>
				<port id="2" precision="FP32" names="/encoder/layer.3/Add_output_0">
					<dim>1</dim>
					<dim>197</dim>
					<dim>384</dim>
				</port>
			</output>
		</layer>
		<layer id="335" name="Constant_1770" type="Const" version="opset1">
			<data element_type="i64" shape="1" offset="130568" size="8" />
			<output>
				<port id="0" precision="I64">
					<dim>1</dim>
				</port>
			</output>
		</layer>
		<layer id="336" name="/encoder/layer.3/layernorm_after/Div" type="MVN" version="opset6">
			<data eps="9.999999960041972e-13" normalize_variance="true" eps_mode="INSIDE_SQRT" />
			<input>
				<port id="0" precision="FP32">
					<dim>1</dim>
					<dim>197</dim>
					<dim>384</dim>
				</port>
				<port id="1" precision="I64">
					<dim>1</dim>
				</port>
			</input>
			<output>
				<port id="2" precision="FP32" names="/encoder/layer.3/layernorm_after/Div_output_0">
					<dim>1</dim>
					<dim>197</dim>
					<dim>384</dim>
				</port>
			</output>
		</layer>
		<layer id="337" name="Constant_31367" type="Const" version="opset1">
			<data element_type="f32" shape="1, 1, 384" offset="25241324" size="1536" />
			<output>
				<port id="0" precision="FP32">
					<dim>1</dim>
					<dim>1</dim>
					<dim>384</dim>
				</port>
			</output>
		</layer>
		<layer id="338" name="/encoder/layer.3/layernorm_after/Mul" type="Multiply" version="opset1">
			<data auto_broadcast="numpy" />
			<input>
				<port id="0" precision="FP32">
					<dim>1</dim>
					<dim>197</dim>
					<dim>384</dim>
				</port>
				<port id="1" precision="FP32">
					<dim>1</dim>
					<dim>1</dim>
					<dim>384</dim>
				</port>
			</input>
			<output>
				<port id="2" precision="FP32" names="/encoder/layer.3/layernorm_after/Mul_output_0">
					<dim>1</dim>
					<dim>197</dim>
					<dim>384</dim>
				</port>
			</output>
		</layer>
		<layer id="339" name="Constant_31368" type="Const" version="opset1">
			<data element_type="f32" shape="1, 1, 384" offset="25242860" size="1536" />
			<output>
				<port id="0" precision="FP32">
					<dim>1</dim>
					<dim>1</dim>
					<dim>384</dim>
				</port>
			</output>
		</layer>
		<layer id="340" name="/encoder/layer.3/layernorm_after/Add_1" type="Add" version="opset1">
			<data auto_broadcast="numpy" />
			<input>
				<port id="0" precision="FP32">
					<dim>1</dim>
					<dim>197</dim>
					<dim>384</dim>
				</port>
				<port id="1" precision="FP32">
					<dim>1</dim>
					<dim>1</dim>
					<dim>384</dim>
				</port>
			</input>
			<output>
				<port id="2" precision="FP32" names="/encoder/layer.3/layernorm_after/Add_1_output_0">
					<dim>1</dim>
					<dim>197</dim>
					<dim>384</dim>
				</port>
			</output>
		</layer>
		<layer id="341" name="Constant_30850" type="Const" version="opset1">
			<data element_type="f32" shape="1536, 384" offset="25244396" size="2359296" />
			<output>
				<port id="0" precision="FP32">
					<dim>1536</dim>
					<dim>384</dim>
				</port>
			</output>
		</layer>
		<layer id="342" name="/encoder/layer.3/intermediate/dense/MatMul" type="MatMul" version="opset1">
			<data transpose_a="false" transpose_b="true" />
			<input>
				<port id="0" precision="FP32">
					<dim>1</dim>
					<dim>197</dim>
					<dim>384</dim>
				</port>
				<port id="1" precision="FP32">
					<dim>1536</dim>
					<dim>384</dim>
				</port>
			</input>
			<output>
				<port id="2" precision="FP32" names="/encoder/layer.3/intermediate/dense/MatMul_output_0">
					<dim>1</dim>
					<dim>197</dim>
					<dim>1536</dim>
				</port>
			</output>
		</layer>
		<layer id="343" name="/encoder/layer.3/intermediate/dense/Add" type="Add" version="opset1">
			<data auto_broadcast="numpy" />
			<input>
				<port id="0" precision="FP32">
					<dim>1</dim>
					<dim>1</dim>
					<dim>1536</dim>
				</port>
				<port id="1" precision="FP32">
					<dim>1</dim>
					<dim>197</dim>
					<dim>1536</dim>
				</port>
			</input>
			<output>
				<port id="2" precision="FP32" names="/encoder/layer.3/intermediate/dense/Add_output_0">
					<dim>1</dim>
					<dim>197</dim>
					<dim>1536</dim>
				</port>
			</output>
		</layer>
		<layer id="344" name="/encoder/layer.3/intermediate/intermediate_act_fn/Mul_1" type="Gelu" version="opset7">
			<data approximation_mode="ERF" />
			<input>
				<port id="0" precision="FP32">
					<dim>1</dim>
					<dim>197</dim>
					<dim>1536</dim>
				</port>
			</input>
			<output>
				<port id="1" precision="FP32" names="/encoder/layer.3/intermediate/intermediate_act_fn/Mul_1_output_0">
					<dim>1</dim>
					<dim>197</dim>
					<dim>1536</dim>
				</port>
			</output>
		</layer>
		<layer id="345" name="Constant_30858" type="Const" version="opset1">
			<data element_type="f32" shape="384, 1536" offset="27603692" size="2359296" />
			<output>
				<port id="0" precision="FP32">
					<dim>384</dim>
					<dim>1536</dim>
				</port>
			</output>
		</layer>
		<layer id="346" name="/encoder/layer.3/output/dense/MatMul" type="MatMul" version="opset1">
			<data transpose_a="false" transpose_b="true" />
			<input>
				<port id="0" precision="FP32">
					<dim>1</dim>
					<dim>197</dim>
					<dim>1536</dim>
				</port>
				<port id="1" precision="FP32">
					<dim>384</dim>
					<dim>1536</dim>
				</port>
			</input>
			<output>
				<port id="2" precision="FP32" names="/encoder/layer.3/output/dense/MatMul_output_0">
					<dim>1</dim>
					<dim>197</dim>
					<dim>384</dim>
				</port>
			</output>
		</layer>
		<layer id="347" name="/encoder/layer.3/output/dense/Add" type="Add" version="opset1">
			<data auto_broadcast="numpy" />
			<input>
				<port id="0" precision="FP32">
					<dim>1</dim>
					<dim>1</dim>
					<dim>384</dim>
				</port>
				<port id="1" precision="FP32">
					<dim>1</dim>
					<dim>197</dim>
					<dim>384</dim>
				</port>
			</input>
			<output>
				<port id="2" precision="FP32" names="/encoder/layer.3/output/dense/Add_output_0">
					<dim>1</dim>
					<dim>197</dim>
					<dim>384</dim>
				</port>
			</output>
		</layer>
		<layer id="348" name="/encoder/layer.3/output/Add" type="Add" version="opset1">
			<data auto_broadcast="numpy" />
			<input>
				<port id="0" precision="FP32">
					<dim>1</dim>
					<dim>197</dim>
					<dim>384</dim>
				</port>
				<port id="1" precision="FP32">
					<dim>1</dim>
					<dim>197</dim>
					<dim>384</dim>
				</port>
			</input>
			<output>
				<port id="2" precision="FP32" names="/encoder/layer.3/output/Add_output_0">
					<dim>1</dim>
					<dim>197</dim>
					<dim>384</dim>
				</port>
			</output>
		</layer>
		<layer id="349" name="Constant_1796" type="Const" version="opset1">
			<data element_type="i64" shape="1" offset="130568" size="8" />
			<output>
				<port id="0" precision="I64">
					<dim>1</dim>
				</port>
			</output>
		</layer>
		<layer id="350" name="/encoder/layer.4/layernorm_before/Div" type="MVN" version="opset6">
			<data eps="9.999999960041972e-13" normalize_variance="true" eps_mode="INSIDE_SQRT" />
			<input>
				<port id="0" precision="FP32">
					<dim>1</dim>
					<dim>197</dim>
					<dim>384</dim>
				</port>
				<port id="1" precision="I64">
					<dim>1</dim>
				</port>
			</input>
			<output>
				<port id="2" precision="FP32" names="/encoder/layer.4/layernorm_before/Div_output_0">
					<dim>1</dim>
					<dim>197</dim>
					<dim>384</dim>
				</port>
			</output>
		</layer>
		<layer id="351" name="Constant_31371" type="Const" version="opset1">
			<data element_type="f32" shape="1, 1, 384" offset="29962988" size="1536" />
			<output>
				<port id="0" precision="FP32">
					<dim>1</dim>
					<dim>1</dim>
					<dim>384</dim>
				</port>
			</output>
		</layer>
		<layer id="352" name="/encoder/layer.4/layernorm_before/Mul" type="Multiply" version="opset1">
			<data auto_broadcast="numpy" />
			<input>
				<port id="0" precision="FP32">
					<dim>1</dim>
					<dim>197</dim>
					<dim>384</dim>
				</port>
				<port id="1" precision="FP32">
					<dim>1</dim>
					<dim>1</dim>
					<dim>384</dim>
				</port>
			</input>
			<output>
				<port id="2" precision="FP32" names="/encoder/layer.4/layernorm_before/Mul_output_0">
					<dim>1</dim>
					<dim>197</dim>
					<dim>384</dim>
				</port>
			</output>
		</layer>
		<layer id="353" name="Constant_31372" type="Const" version="opset1">
			<data element_type="f32" shape="1, 1, 384" offset="29964524" size="1536" />
			<output>
				<port id="0" precision="FP32">
					<dim>1</dim>
					<dim>1</dim>
					<dim>384</dim>
				</port>
			</output>
		</layer>
		<layer id="354" name="/encoder/layer.4/layernorm_before/Add_1" type="Add" version="opset1">
			<data auto_broadcast="numpy" />
			<input>
				<port id="0" precision="FP32">
					<dim>1</dim>
					<dim>197</dim>
					<dim>384</dim>
				</port>
				<port id="1" precision="FP32">
					<dim>1</dim>
					<dim>1</dim>
					<dim>384</dim>
				</port>
			</input>
			<output>
				<port id="2" precision="FP32" names="/encoder/layer.4/layernorm_before/Add_1_output_0">
					<dim>1</dim>
					<dim>197</dim>
					<dim>384</dim>
				</port>
			</output>
		</layer>
		<layer id="355" name="Constant_30866" type="Const" version="opset1">
			<data element_type="f32" shape="384, 384" offset="29966060" size="589824" />
			<output>
				<port id="0" precision="FP32">
					<dim>384</dim>
					<dim>384</dim>
				</port>
			</output>
		</layer>
		<layer id="356" name="/encoder/layer.4/attention/attention/query/MatMul" type="MatMul" version="opset1">
			<data transpose_a="false" transpose_b="true" />
			<input>
				<port id="0" precision="FP32">
					<dim>1</dim>
					<dim>197</dim>
					<dim>384</dim>
				</port>
				<port id="1" precision="FP32">
					<dim>384</dim>
					<dim>384</dim>
				</port>
			</input>
			<output>
				<port id="2" precision="FP32" names="/encoder/layer.4/attention/attention/query/MatMul_output_0">
					<dim>1</dim>
					<dim>197</dim>
					<dim>384</dim>
				</port>
			</output>
		</layer>
		<layer id="357" name="/encoder/layer.4/attention/attention/query/Add" type="Add" version="opset1">
			<data auto_broadcast="numpy" />
			<input>
				<port id="0" precision="FP32">
					<dim>1</dim>
					<dim>1</dim>
					<dim>384</dim>
				</port>
				<port id="1" precision="FP32">
					<dim>1</dim>
					<dim>197</dim>
					<dim>384</dim>
				</port>
			</input>
			<output>
				<port id="2" precision="FP32" names="/encoder/layer.4/attention/attention/query/Add_output_0">
					<dim>1</dim>
					<dim>197</dim>
					<dim>384</dim>
				</port>
			</output>
		</layer>
		<layer id="358" name="/encoder/layer.4/attention/attention/Concat_2" type="Const" version="opset1">
			<data element_type="i64" shape="4" offset="2207336" size="32" />
			<output>
				<port id="0" precision="I64">
					<dim>4</dim>
				</port>
			</output>
		</layer>
		<layer id="359" name="/encoder/layer.4/attention/attention/Reshape_2" type="Reshape" version="opset1">
			<data special_zero="true" />
			<input>
				<port id="0" precision="FP32">
					<dim>1</dim>
					<dim>197</dim>
					<dim>384</dim>
				</port>
				<port id="1" precision="I64">
					<dim>4</dim>
				</port>
			</input>
			<output>
				<port id="2" precision="FP32" names="/encoder/layer.4/attention/attention/Reshape_2_output_0">
					<dim>1</dim>
					<dim>197</dim>
					<dim>6</dim>
					<dim>64</dim>
				</port>
			</output>
		</layer>
		<layer id="360" name="Constant_2006" type="Const" version="opset1">
			<data element_type="i64" shape="4" offset="2207368" size="32" />
			<output>
				<port id="0" precision="I64">
					<dim>4</dim>
				</port>
			</output>
		</layer>
		<layer id="361" name="/encoder/layer.4/attention/attention/Transpose_1" type="Transpose" version="opset1">
			<input>
				<port id="0" precision="FP32">
					<dim>1</dim>
					<dim>197</dim>
					<dim>6</dim>
					<dim>64</dim>
				</port>
				<port id="1" precision="I64">
					<dim>4</dim>
				</port>
			</input>
			<output>
				<port id="2" precision="FP32" names="/encoder/layer.4/attention/attention/Transpose_1_output_0">
					<dim>1</dim>
					<dim>6</dim>
					<dim>197</dim>
					<dim>64</dim>
				</port>
			</output>
		</layer>
		<layer id="362" name="/encoder/layer.4/attention/attention/Constant_14" type="Const" version="opset1">
			<data element_type="f32" shape="1" offset="2207400" size="4" />
			<output>
				<port id="0" precision="FP32" names="/encoder/layer.4/attention/attention/Constant_14_output_0">
					<dim>1</dim>
				</port>
			</output>
		</layer>
		<layer id="363" name="/encoder/layer.4/attention/attention/Shape_6" type="ShapeOf" version="opset3">
			<data output_type="i64" />
			<input>
				<port id="0" precision="FP32">
					<dim>1</dim>
					<dim>6</dim>
					<dim>197</dim>
					<dim>64</dim>
				</port>
			</input>
			<output>
				<port id="1" precision="I64" names="/encoder/layer.4/attention/attention/Shape_6_output_0">
					<dim>4</dim>
				</port>
			</output>
		</layer>
		<layer id="364" name="/encoder/layer.4/attention/attention/Constant_12" type="Const" version="opset1">
			<data element_type="i64" shape="1" offset="130568" size="8" />
			<output>
				<port id="0" precision="I64" names="/encoder/layer.4/attention/attention/Constant_12_output_0">
					<dim>1</dim>
				</port>
			</output>
		</layer>
		<layer id="365" name="/encoder/layer.4/attention/attention/Constant_13" type="Const" version="opset1">
			<data element_type="i64" shape="1" offset="2207404" size="8" />
			<output>
				<port id="0" precision="I64" names="/encoder/layer.4/attention/attention/Constant_13_output_0">
					<dim>1</dim>
…
		<edge from-layer="236" from-port="2" to-layer="247" to-port="0" />
		<edge from-layer="236" from-port="2" to-layer="237" to-port="0" />
		<edge from-layer="237" from-port="1" to-layer="238" to-port="1" />
		<edge from-layer="238" from-port="2" to-layer="249" to-port="0" />
		<edge from-layer="239" from-port="0" to-layer="242" to-port="0" />
		<edge from-layer="240" from-port="0" to-layer="241" to-port="1" />
		<edge from-layer="241" from-port="2" to-layer="242" to-port="1" />
		<edge from-layer="242" from-port="2" to-layer="244" to-port="0" />
		<edge from-layer="243" from-port="0" to-layer="244" to-port="1" />
		<edge from-layer="244" from-port="2" to-layer="246" to-port="0" />
		<edge from-layer="245" from-port="0" to-layer="246" to-port="1" />
		<edge from-layer="246" from-port="2" to-layer="248" to-port="0" />
		<edge from-layer="247" from-port="1" to-layer="248" to-port="1" />
		<edge from-layer="248" from-port="2" to-layer="249" to-port="1" />
		<edge from-layer="249" from-port="2" to-layer="250" to-port="0" />
		<edge from-layer="250" from-port="1" to-layer="259" to-port="0" />
		<edge from-layer="251" from-port="0" to-layer="254" to-port="0" />
		<edge from-layer="252" from-port="0" to-layer="253" to-port="1" />
		<edge from-layer="253" from-port="2" to-layer="254" to-port="1" />
		<edge from-layer="254" from-port="2" to-layer="256" to-port="0" />
		<edge from-layer="255" from-port="0" to-layer="256" to-port="1" />
		<edge from-layer="256" from-port="2" to-layer="258" to-port="0" />
		<edge from-layer="257" from-port="0" to-layer="258" to-port="1" />
		<edge from-layer="258" from-port="2" to-layer="259" to-port="1" />
		<edge from-layer="259" from-port="2" to-layer="261" to-port="0" />
		<edge from-layer="260" from-port="0" to-layer="261" to-port="1" />
		<edge from-layer="261" from-port="2" to-layer="263" to-port="0" />
		<edge from-layer="262" from-port="0" to-layer="263" to-port="1" />
		<edge from-layer="263" from-port="2" to-layer="265" to-port="0" />
		<edge from-layer="264" from-port="0" to-layer="265" to-port="1" />
		<edge from-layer="265" from-port="2" to-layer="266" to-port="1" />
		<edge from-layer="266" from-port="2" to-layer="267" to-port="0" />
		<edge from-layer="267" from-port="2" to-layer="269" to-port="0" />
		<edge from-layer="267" from-port="2" to-layer="281" to-port="1" />
		<edge from-layer="268" from-port="0" to-layer="269" to-port="1" />
		<edge from-layer="269" from-port="2" to-layer="271" to-port="0" />
		<edge from-layer="270" from-port="0" to-layer="271" to-port="1" />
		<edge from-layer="271" from-port="2" to-layer="273" to-port="0" />
		<edge from-layer="272" from-port="0" to-layer="273" to-port="1" />
		<edge from-layer="273" from-port="2" to-layer="275" to-port="0" />
		<edge from-layer="274" from-port="0" to-layer="275" to-port="1" />
		<edge from-layer="275" from-port="2" to-layer="276" to-port="1" />
		<edge from-layer="276" from-port="2" to-layer="277" to-port="0" />
		<edge from-layer="277" from-port="1" to-layer="279" to-port="0" />
		<edge from-layer="278" from-port="0" to-layer="279" to-port="1" />
		<edge from-layer="279" from-port="2" to-layer="280" to-port="1" />
		<edge from-layer="280" from-port="2" to-layer="281" to-port="0" />
		<edge from-layer="281" from-port="2" to-layer="283" to-port="0" />
		<edge from-layer="281" from-port="2" to-layer="334" to-port="1" />
		<edge from-layer="282" from-port="0" to-layer="283" to-port="1" />
		<edge from-layer="283" from-port="2" to-layer="285" to-port="0" />
		<edge from-layer="284" from-port="0" to-layer="285" to-port="1" />
		<edge from-layer="285" from-port="2" to-layer="287" to-port="0" />
		<edge from-layer="286" from-port="0" to-layer="287" to-port="1" />
		<edge from-layer="287" from-port="2" to-layer="320" to-port="0" />
		<edge from-layer="287" from-port="2" to-layer="308" to-port="0" />
		<edge from-layer="287" from-port="2" to-layer="289" to-port="0" />
		<edge from-layer="288" from-port="0" to-layer="289" to-port="1" />
		<edge from-layer="289" from-port="2" to-layer="290" to-port="1" />
		<edge from-layer="290" from-port="2" to-layer="292" to-port="0" />
		<edge from-layer="291" from-port="0" to-layer="292" to-port="1" />
		<edge from-layer="292" from-port="2" to-layer="294" to-port="0" />
		<edge from-layer="293" from-port="0" to-layer="294" to-port="1" />
		<edge from-layer="294" from-port="2" to-layer="305" to-port="0" />
		<edge from-layer="294" from-port="2" to-layer="296" to-port="0" />
		<edge from-layer="295" from-port="0" to-layer="303" to-port="0" />
		<edge from-layer="296" from-port="1" to-layer="300" to-port="0" />
		<edge from-layer="297" from-port="0" to-layer="300" to-port="1" />
		<edge from-layer="298" from-port="0" to-layer="300" to-port="2" />
		<edge from-layer="299" from-port="0" to-layer="300" to-port="3" />
		<edge from-layer="300" from-port="4" to-layer="301" to-port="0" />
		<edge from-layer="301" from-port="1" to-layer="302" to-port="0" />
		<edge from-layer="302" from-port="1" to-layer="303" to-port="1" />
		<edge from-layer="303" from-port="2" to-layer="314" to-port="0" />
		<edge from-layer="303" from-port="2" to-layer="304" to-port="0" />
		<edge from-layer="304" from-port="1" to-layer="305" to-port="1" />
		<edge from-layer="305" from-port="2" to-layer="316" to-port="0" />
		<edge from-layer="306" from-port="0" to-layer="309" to-port="0" />
		<edge from-layer="307" from-port="0" to-layer="308" to-port="1" />
		<edge from-layer="308" from-port="2" to-layer="309" to-port="1" />
		<edge from-layer="309" from-port="2" to-layer="311" to-port="0" />
		<edge from-layer="310" from-port="0" to-layer="311" to-port="1" />
		<edge from-layer="311" from-port="2" to-layer="313" to-port="0" />
		<edge from-layer="312" from-port="0" to-layer="313" to-port="1" />
		<edge from-layer="313" from-port="2" to-layer="315" to-port="0" />
		<edge from-layer="314" from-port="1" to-layer="315" to-port="1" />
		<edge from-layer="315" from-port="2" to-layer="316" to-port="1" />
		<edge from-layer="316" from-port="2" to-layer="317" to-port="0" />
		<edge from-layer="317" from-port="1" to-layer="326" to-port="0" />
		<edge from-layer="318" from-port="0" to-layer="321" to-port="0" />
		<edge from-layer="319" from-port="0" to-layer="320" to-port="1" />
		<edge from-layer="320" from-port="2" to-layer="321" to-port="1" />
		<edge from-layer="321" from-port="2" to-layer="323" to-port="0" />
		<edge from-layer="322" from-port="0" to-layer="323" to-port="1" />
		<edge from-layer="323" from-port="2" to-layer="325" to-port="0" />
		<edge from-layer="324" from-port="0" to-layer="325" to-port="1" />
		<edge from-layer="325" from-port="2" to-layer="326" to-port="1" />
		<edge from-layer="326" from-port="2" to-layer="328" to-port="0" />
		<edge from-layer="327" from-port="0" to-layer="328" to-port="1" />
		<edge from-layer="328" from-port="2" to-layer="330" to-port="0" />
		<edge from-layer="329" from-port="0" to-layer="330" to-port="1" />
		<edge from-layer="330" from-port="2" to-layer="332" to-port="0" />
		<edge from-layer="331" from-port="0" to-layer="332" to-port="1" />
		<edge from-layer="332" from-port="2" to-layer="333" to-port="1" />
		<edge from-layer="333" from-port="2" to-layer="334" to-port="0" />
		<edge from-layer="334" from-port="2" to-layer="348" to-port="1" />
		<edge from-layer="334" from-port="2" to-layer="336" to-port="0" />
		<edge from-layer="335" from-port="0" to-layer="336" to-port="1" />
		<edge from-layer="336" from-port="2" to-layer="338" to-port="0" />
		<edge from-layer="337" from-port="0" to-layer="338" to-port="1" />
		<edge from-layer="338" from-port="2" to-layer="340" to-port="0" />
		<edge from-layer="339" from-port="0" to-layer="340" to-port="1" />
		<edge from-layer="340" from-port="2" to-layer="342" to-port="0" />
		<edge from-layer="341" from-port="0" to-layer="342" to-port="1" />
		<edge from-layer="342" from-port="2" to-layer="343" to-port="1" />
		<edge from-layer="343" from-port="2" to-layer="344" to-port="0" />
		<edge from-layer="344" from-port="1" to-layer="346" to-port="0" />
		<edge from-layer="345" from-port="0" to-layer="346" to-port="1" />
		<edge from-layer="346" from-port="2" to-layer="347" to-port="1" />
		<edge from-layer="347" from-port="2" to-layer="348" to-port="0" />
		<edge from-layer="348" from-port="2" to-layer="350" to-port="0" />
		<edge from-layer="348" from-port="2" to-layer="401" to-port="1" />
		<edge from-layer="349" from-port="0" to-layer="350" to-port="1" />
		<edge from-layer="350" from-port="2" to-layer="352" to-port="0" />
		<edge from-layer="351" from-port="0" to-layer="352" to-port="1" />
		<edge from-layer="352" from-port="2" to-layer="354" to-port="0" />
		<edge from-layer="353" from-port="0" to-layer="354" to-port="1" />
		<edge from-layer="354" from-port="2" to-layer="375" to-port="0" />
		<edge from-layer="354" from-port="2" to-layer="387" to-port="0" />
		<edge from-layer="354" from-port="2" to-layer="356" to-port="0" />
		<edge from-layer="355" from-port="0" to-layer="356" to-port="1" />
		<edge from-layer="356" from-port="2" to-layer="357" to-port="1" />
		<edge from-layer="357" from-port="2" to-layer="359" to-port="0" />
		<edge from-layer="358" from-port="0" to-layer="359" to-port="1" />
		<edge from-layer="359" from-port="2" to-layer="361" to-port="0" />
		<edge from-layer="360" from-port="0" to-layer="361" to-port="1" />
		<edge from-layer="361" from-port="2" to-layer="363" to-port="0" />
		<edge from-layer="361" from-port="2" to-layer="372" to-port="0" />
		<edge from-layer="362" from-port="0" to-layer="370" to-port="0" />
		<edge from-layer="363" from-port="1" to-layer="367" to-port="0" />
		<edge from-layer="364" from-port="0" to-layer="367" to-port="1" />
		<edge from-layer="365" from-port="0" to-layer="367" to-port="2" />
		<edge from-layer="366" from-port="0" to-layer="367" to-port="3" />
		<edge from-layer="367" from-port="4" to-layer="368" to-port="0" />
		<edge from-layer="368" from-port="1" to-layer="369" to-port="0" />
		<edge from-layer="369" from-port="1" to-layer="370" to-port="1" />
		<edge from-layer="370" from-port="2" to-layer="381" to-port="0" />
		<edge from-layer="370" from-port="2" to-layer="371" to-port="0" />
		<edge from-layer="371" from-port="1" to-layer="372" to-port="1" />
		<edge from-layer="372" from-port="2" to-layer="383" to-port="0" />
		<edge from-layer="373" from-port="0" to-layer="376" to-port="0" />
		<edge from-layer="374" from-port="0" to-layer="375" to-port="1" />
		<edge from-layer="375" from-port="2" to-layer="376" to-port="1" />
		<edge from-layer="376" from-port="2" to-layer="378" to-port="0" />
		<edge from-layer="377" from-port="0" to-layer="378" to-port="1" />
		<edge from-layer="378" from-port="2" to-layer="380" to-port="0" />
		<edge from-layer="379" from-port="0" to-layer="380" to-port="1" />
		<edge from-layer="380" from-port="2" to-layer="382" to-port="0" />
		<edge from-layer="381" from-port="1" to-layer="382" to-port="1" />
		<edge from-layer="382" from-port="2" to-layer="383" to-port="1" />
		<edge from-layer="383" from-port="2" to-layer="384" to-port="0" />
		<edge from-layer="384" from-port="1" to-layer="393" to-port="0" />
		<edge from-layer="385" from-port="0" to-layer="388" to-port="0" />
		<edge from-layer="386" from-port="0" to-layer="387" to-port="1" />
		<edge from-layer="387" from-port="2" to-layer="388" to-port="1" />
		<edge from-layer="388" from-port="2" to-layer="390" to-port="0" />
		<edge from-layer="389" from-port="0" to-layer="390" to-port="1" />
		<edge from-layer="390" from-port="2" to-layer="392" to-port="0" />
		<edge from-layer="391" from-port="0" to-layer="392" to-port="1" />
		<edge from-layer="392" from-port="2" to-layer="393" to-port="1" />
		<edge from-layer="393" from-port="2" to-layer="395" to-port="0" />
		<edge from-layer="394" from-port="0" to-layer="395" to-port="1" />
		<edge from-layer="395" from-port="2" to-layer="397" to-port="0" />
		<edge from-layer="396" from-port="0" to-layer="397" to-port="1" />
		<edge from-layer="397" from-port="2" to-layer="399" to-port="0" />
		<edge from-layer="398" from-port="0" to-layer="399" to-port="1" />
		<edge from-layer="399" from-port="2" to-layer="400" to-port="1" />
		<edge from-layer="400" from-port="2" to-layer="401" to-port="0" />
		<edge from-layer="401" from-port="2" to-layer="403" to-port="0" />
		<edge from-layer="401" from-port="2" to-layer="415" to-port="1" />
		<edge from-layer="402" from-port="0" to-layer="403" to-port="1" />
		<edge from-layer="403" from-port="2" to-layer="405" to-port="0" />
		<edge from-layer="404" from-port="0" to-layer="405" to-port="1" />
		<edge from-layer="405" from-port="2" to-layer="407" to-port="0" />
		<edge from-layer="406" from-port="0" to-layer="407" to-port="1" />
		<edge from-layer="407" from-port="2" to-layer="409" to-port="0" />
		<edge from-layer="408" from-port="0" to-layer="409" to-port="1" />
		<edge from-layer="409" from-port="2" to-layer="410" to-port="1" />
		<edge from-layer="410" from-port="2" to-layer="411" to-port="0" />
		<edge from-layer="411" from-port="1" to-layer="413" to-port="0" />
		<edge from-layer="412" from-port="0" to-layer="413" to-port="1" />
		<edge from-layer="413" from-port="2" to-layer="414" to-port="1" />
		<edge from-layer="414" from-port="2" to-layer="415" to-port="0" />
		<edge from-layer="415" from-port="2" to-layer="468" to-port="1" />
		<edge from-layer="415" from-port="2" to-layer="417" to-port="0" />
		<edge from-layer="416" from-port="0" to-layer="417" to-port="1" />
		<edge from-layer="417" from-port="2" to-layer="419" to-port="0" />
		<edge from-layer="418" from-port="0" to-layer="419" to-port="1" />
		<edge from-layer="419" from-port="2" to-layer="421" to-port="0" />
		<edge from-layer="420" from-port="0" to-layer="421" to-port="1" />
		<edge from-layer="421" from-port="2" to-layer="442" to-port="0" />
		<edge from-layer="421" from-port="2" to-layer="423" to-port="0" />
		<edge from-layer="421" from-port="2" to-layer="454" to-port="0" />
		<edge from-layer="422" from-port="0" to-layer="423" to-port="1" />
		<edge from-layer="423" from-port="2" to-layer="424" to-port="1" />
		<edge from-layer="424" from-port="2" to-layer="426" to-port="0" />
		<edge from-layer="425" from-port="0" to-layer="426" to-port="1" />
		<edge from-layer="426" from-port="2" to-layer="428" to-port="0" />
		<edge from-layer="427" from-port="0" to-layer="428" to-port="1" />
		<edge from-layer="428" from-port="2" to-layer="430" to-port="0" />
		<edge from-layer="428" from-port="2" to-layer="439" to-port="0" />
		<edge from-layer="429" from-port="0" to-layer="437" to-port="0" />
		<edge from-layer="430" from-port="1" to-layer="434" to-port="0" />
		<edge from-layer="431" from-port="0" to-layer="434" to-port="1" />
		<edge from-layer="432" from-port="0" to-layer="434" to-port="2" />
		<edge from-layer="433" from-port="0" to-layer="434" to-port="3" />
		<edge from-layer="434" from-port="4" to-layer="435" to-port="0" />
		<edge from-layer="435" from-port="1" to-layer="436" to-port="0" />
		<edge from-layer="436" from-port="1" to-layer="437" to-port="1" />
		<edge from-layer="437" from-port="2" to-layer="438" to-port="0" />
		<edge from-layer="437" from-port="2" to-layer="448" to-port="0" />
		<edge from-layer="438" from-port="1" to-layer="439" to-port="1" />
		<edge from-layer="439" from-port="2" to-layer="450" to-port="0" />
		<edge from-layer="440" from-port="0" to-layer="443" to-port="0" />
		<edge from-layer="441" from-port="0" to-layer="442" to-port="1" />
		<edge from-layer="442" from-port="2" to-layer="443" to-port="1" />
		<edge from-layer="443" from-port="2" to-layer="445" to-port="0" />
		<edge from-layer="444" from-port="0" to-layer="445" to-port="1" />
		<edge from-layer="445" from-port="2" to-layer="447" to-port="0" />
		<edge from-layer="446" from-port="0" to-layer="447" to-port="1" />
		<edge from-layer="447" from-port="2" to-layer="449" to-port="0" />
		<edge from-layer="448" from-port="1" to-layer="449" to-port="1" />
		<edge from-layer="449" from-port="2" to-layer="450" to-port="1" />
		<edge from-layer="450" from-port="2" to-layer="451" to-port="0" />
		<edge from-layer="451" from-port="1" to-layer="460" to-port="0" />
		<edge from-layer="452" from-port="0" to-layer="455" to-port="0" />
		<edge from-layer="453" from-port="0" to-layer="454" to-port="1" />
		<edge from-layer="454" from-port="2" to-layer="455" to-port="1" />
		<edge from-layer="455" from-port="2" to-layer="457" to-port="0" />
		<edge from-layer="456" from-port="0" to-layer="457" to-port="1" />
		<edge from-layer="457" from-port="2" to-layer="459" to-port="0" />
		<edge from-layer="458" from-port="0" to-layer="459" to-port="1" />
		<edge from-layer="459" from-port="2" to-layer="460" to-port="1" />
		<edge from-layer="460" from-port="2" to-layer="462" to-port="0" />
		<edge from-layer="461" from-port="0" to-layer="462" to-port="1" />
		<edge from-layer="462" from-port="2" to-layer="464" to-port="0" />
		<edge from-layer="463" from-port="0" to-layer="464" to-port="1" />
		<edge from-layer="464" from-port="2" to-layer="466" to-port="0" />
		<edge from-layer="465" from-port="0" to-layer="466" to-port="1" />
		<edge from-layer="466" from-port="2" to-layer="467" to-port="1" />
		<edge from-layer="467" from-port="2" to-layer="468" to-port="0" />
		<edge from-layer="468" from-port="2" to-layer="482" to-port="1" />
		<edge from-layer="468" from-port="2" to-layer="470" to-port="0" />
		<edge from-layer="469" from-port="0" to-layer="470" to-port="1" />
		<edge from-layer="470" from-port="2" to-layer="472" to-port="0" />
		<edge from-layer="471" from-port="0" to-layer="472" to-port="1" />
		<edge from-layer="472" from-port="2" to-layer="474" to-port="0" />
		<edge from-layer="473" from-port="0" to-layer="474" to-port="1" />
		<edge from-layer="474" from-port="2" to-layer="476" to-port="0" />
		<edge from-layer="475" from-port="0" to-layer="476" to-port="1" />
		<edge from-layer="476" from-port="2" to-layer="477" to-port="1" />
		<edge from-layer="477" from-port="2" to-layer="478" to-port="0" />
		<edge from-layer="478" from-port="1" to-layer="480" to-port="0" />
		<edge from-layer="479" from-port="0" to-layer="480" to-port="1" />
		<edge from-layer="480" from-port="2" to-layer="481" to-port="1" />
		<edge from-layer="481" from-port="2" to-layer="482" to-port="0" />
		<edge from-layer="482" from-port="2" to-layer="535" to-port="1" />
		<edge from-layer="482" from-port="2" to-layer="484" to-port="0" />
		<edge from-layer="483" from-port="0" to-layer="484" to-port="1" />
		<edge from-layer="484" from-port="2" to-layer="486" to-port="0" />
		<edge from-layer="485" from-port="0" to-layer="486" to-port="1" />
		<edge from-layer="486" from-port="2" to-layer="488" to-port="0" />
		<edge from-layer="487" from-port="0" to-layer="488" to-port="1" />
		<edge from-layer="488" from-port="2" to-layer="509" to-port="0" />
		<edge from-layer="488" from-port="2" to-layer="521" to-port="0" />
		<edge from-layer="488" from-port="2" to-layer="490" to-port="0" />
		<edge from-layer="489" from-port="0" to-layer="490" to-port="1" />
		<edge from-layer="490" from-port="2" to-layer="491" to-port="1" />
		<edge from-layer="491" from-port="2" to-layer="493" to-port="0" />
		<edge from-layer="492" from-port="0" to-layer="493" to-port="1" />
		<edge from-layer="493" from-port="2" to-layer="495" to-port="0" />
		<edge from-layer="494" from-port="0" to-layer="495" to-port="1" />
		<edge from-layer="495" from-port="2" to-layer="506" to-port="0" />
		<edge from-layer="495" from-port="2" to-layer="497" to-port="0" />
		<edge from-layer="496" from-port="0" to-layer="504" to-port="0" />
		<edge from-layer="497" from-port="1" to-layer="501" to-port="0" />
		<edge from-layer="498" from-port="0" to-layer="501" to-port="1" />
		<edge from-layer="499" from-port="0" to-layer="501" to-port="2" />
		<edge from-layer="500" from-port="0" to-layer="501" to-port="3" />
		<edge from-layer="501" from-port="4" to-layer="502" to-port="0" />
		<edge from-layer="502" from-port="1" to-layer="503" to-port="0" />
		<edge from-layer="503" from-port="1" to-layer="504" to-port="1" />
		<edge from-layer="504" from-port="2" to-layer="505" to-port="0" />
		<edge from-layer="504" from-port="2" to-layer="515" to-port="0" />
		<edge from-layer="505" from-port="1" to-layer="506" to-port="1" />
		<edge from-layer="506" from-port="2" to-layer="517" to-port="0" />
		<edge from-layer="507" from-port="0" to-layer="510" to-port="0" />
		<edge from-layer="508" from-port="0" to-layer="509" to-port="1" />
		<edge from-layer="509" from-port="2" to-layer="510" to-port="1" />
		<edge from-layer="510" from-port="2" to-layer="512" to-port="0" />
		<edge from-layer="511" from-port="0" to-layer="512" to-port="1" />
		<edge from-layer="512" from-port="2" to-layer="514" to-port="0" />
		<edge from-layer="513" from-port="0" to-layer="514" to-port="1" />
		<edge from-layer="514" from-port="2" to-layer="516" to-port="0" />
		<edge from-layer="515" from-port="1" to-layer="516" to-port="1" />
		<edge from-layer="516" from-port="2" to-layer="517" to-port="1" />
		<edge from-layer="517" from-port="2" to-layer="518" to-port="0" />
		<edge from-layer="518" from-port="1" to-layer="527" to-port="0" />
		<edge from-layer="519" from-port="0" to-layer="522" to-port="0" />
		<edge from-layer="520" from-port="0" to-layer="521" to-port="1" />
		<edge from-layer="521" from-port="2" to-layer="522" to-port="1" />
		<edge from-layer="522" from-port="2" to-layer="524" to-port="0" />
		<edge from-layer="523" from-port="0" to-layer="524" to-port="1" />
		<edge from-layer="524" from-port="2" to-layer="526" to-port="0" />
		<edge from-layer="525" from-port="0" to-layer="526" to-port="1" />
		<edge from-layer="526" from-port="2" to-layer="527" to-port="1" />
		<edge from-layer="527" from-port="2" to-layer="529" to-port="0" />
		<edge from-layer="528" from-port="0" to-layer="529" to-port="1" />
		<edge from-layer="529" from-port="2" to-layer="531" to-port="0" />
		<edge from-layer="530" from-port="0" to-layer="531" to-port="1" />
		<edge from-layer="531" from-port="2" to-layer="533" to-port="0" />
		<edge from-layer="532" from-port="0" to-layer="533" to-port="1" />
		<edge from-layer="533" from-port="2" to-layer="534" to-port="1" />
		<edge from-layer="534" from-port="2" to-layer="535" to-port="0" />
		<edge from-layer="535" from-port="2" to-layer="549" to-port="1" />
		<edge from-layer="535" from-port="2" to-layer="537" to-port="0" />
		<edge from-layer="536" from-port="0" to-layer="537" to-port="1" />
		<edge from-layer="537" from-port="2" to-layer="539" to-port="0" />
		<edge from-layer="538" from-port="0" to-layer="539" to-port="1" />
		<edge from-layer="539" from-port="2" to-layer="541" to-port="0" />
		<edge from-layer="540" from-port="0" to-layer="541" to-port="1" />
		<edge from-layer="541" from-port="2" to-layer="543" to-port="0" />
		<edge from-layer="542" from-port="0" to-layer="543" to-port="1" />
		<edge from-layer="543" from-port="2" to-layer="544" to-port="1" />
		<edge from-layer="544" from-port="2" to-layer="545" to-port="0" />
		<edge from-layer="545" from-port="1" to-layer="547" to-port="0" />
		<edge from-layer="546" from-port="0" to-layer="547" to-port="1" />
		<edge from-layer="547" from-port="2" to-layer="548" to-port="1" />
		<edge from-layer="548" from-port="2" to-layer="549" to-port="0" />
		<edge from-layer="549" from-port="2" to-layer="551" to-port="0" />
		<edge from-layer="549" from-port="2" to-layer="602" to-port="1" />
		<edge from-layer="550" from-port="0" to-layer="551" to-port="1" />
		<edge from-layer="551" from-port="2" to-layer="553" to-port="0" />
		<edge from-layer="552" from-port="0" to-layer="553" to-port="1" />
		<edge from-layer="553" from-port="2" to-layer="555" to-port="0" />
		<edge from-layer="554" from-port="0" to-layer="555" to-port="1" />
		<edge from-layer="555" from-port="2" to-layer="576" to-port="0" />
		<edge from-layer="555" from-port="2" to-layer="588" to-port="0" />
		<edge from-layer="555" from-port="2" to-layer="557" to-port="0" />
		<edge from-layer="556" from-port="0" to-layer="557" to-port="1" />
		<edge from-layer="557" from-port="2" to-layer="558" to-port="1" />
		<edge from-layer="558" from-port="2" to-layer="560" to-port="0" />
		<edge from-layer="559" from-port="0" to-layer="560" to-port="1" />
		<edge from-layer="560" from-port="2" to-layer="562" to-port="0" />
		<edge from-layer="561" from-port="0" to-layer="562" to-port="1" />
		<edge from-layer="562" from-port="2" to-layer="573" to-port="0" />
		<edge from-layer="562" from-port="2" to-layer="564" to-port="0" />
		<edge from-layer="563" from-port="0" to-layer="571" to-port="0" />
		<edge from-layer="564" from-port="1" to-layer="568" to-port="0" />
		<edge from-layer="565" from-port="0" to-layer="568" to-port="1" />
		<edge from-layer="566" from-port="0" to-layer="568" to-port="2" />
		<edge from-layer="567" from-port="0" to-layer="568" to-port="3" />
		<edge from-layer="568" from-port="4" to-layer="569" to-port="0" />
		<edge from-layer="569" from-port="1" to-layer="570" to-port="0" />
		<edge from-layer="570" from-port="1" to-layer="571" to-port="1" />
		<edge from-layer="571" from-port="2" to-layer="572" to-port="0" />
		<edge from-layer="571" from-port="2" to-layer="582" to-port="0" />
		<edge from-layer="572" from-port="1" to-layer="573" to-port="1" />
		<edge from-layer="573" from-port="2" to-layer="584" to-port="0" />
		<edge from-layer="574" from-port="0" to-layer="577" to-port="0" />
		<edge from-layer="575" from-port="0" to-layer="576" to-port="1" />
		<edge from-layer="576" from-port="2" to-layer="577" to-port="1" />
		<edge from-layer="577" from-port="2" to-layer="579" to-port="0" />
		<edge from-layer="578" from-port="0" to-layer="579" to-port="1" />
		<edge from-layer="579" from-port="2" to-layer="581" to-port="0" />
		<edge from-layer="580" from-port="0" to-layer="581" to-port="1" />
		<edge from-layer="581" from-port="2" to-layer="583" to-port="0" />
		<edge from-layer="582" from-port="1" to-layer="583" to-port="1" />
		<edge from-layer="583" from-port="2" to-layer="584" to-port="1" />
		<edge from-layer="584" from-port="2" to-layer="585" to-port="0" />
		<edge from-layer="585" from-port="1" to-layer="594" to-port="0" />
		<edge from-layer="586" from-port="0" to-layer="589" to-port="0" />
		<edge from-layer="587" from-port="0" to-layer="588" to-port="1" />
		<edge from-layer="588" from-port="2" to-layer="589" to-port="1" />
		<edge from-layer="589" from-port="2" to-layer="591" to-port="0" />
		<edge from-layer="590" from-port="0" to-layer="591" to-port="1" />
		<edge from-layer="591" from-port="2" to-layer="593" to-port="0" />
		<edge from-layer="592" from-port="0" to-layer="593" to-port="1" />
		<edge from-layer="593" from-port="2" to-layer="594" to-port="1" />
		<edge from-layer="594" from-port="2" to-layer="596" to-port="0" />
		<edge from-layer="595" from-port="0" to-layer="596" to-port="1" />
		<edge from-layer="596" from-port="2" to-layer="598" to-port="0" />
		<edge from-layer="597" from-port="0" to-layer="598" to-port="1" />
		<edge from-layer="598" from-port="2" to-layer="600" to-port="0" />
		<edge from-layer="599" from-port="0" to-layer="600" to-port="1" />
		<edge from-layer="600" from-port="2" to-layer="601" to-port="1" />
		<edge from-layer="601" from-port="2" to-layer="602" to-port="0" />
		<edge from-layer="602" from-port="2" to-layer="616" to-port="1" />
		<edge from-layer="602" from-port="2" to-layer="604" to-port="0" />
		<edge from-layer="603" from-port="0" to-layer="604" to-port="1" />
		<edge from-layer="604" from-port="2" to-layer="606" to-port="0" />
		<edge from-layer="605" from-port="0" to-layer="606" to-port="1" />
		<edge from-layer="606" from-port="2" to-layer="608" to-port="0" />
		<edge from-layer="607" from-port="0" to-layer="608" to-port="1" />
		<edge from-layer="608" from-port="2" to-layer="610" to-port="0" />
		<edge from-layer="609" from-port="0" to-layer="610" to-port="1" />
		<edge from-layer="610" from-port="2" to-layer="611" to-port="1" />
		<edge from-layer="611" from-port="2" to-layer="612" to-port="0" />
		<edge from-layer="612" from-port="1" to-layer="614" to-port="0" />
		<edge from-layer="613" from-port="0" to-layer="614" to-port="1" />
		<edge from-layer="614" from-port="2" to-layer="615" to-port="1" />
		<edge from-layer="615" from-port="2" to-layer="616" to-port="0" />
		<edge from-layer="616" from-port="2" to-layer="669" to-port="1" />
		<edge from-layer="616" from-port="2" to-layer="618" to-port="0" />
		<edge from-layer="617" from-port="0" to-layer="618" to-port="1" />
		<edge from-layer="618" from-port="2" to-layer="620" to-port="0" />
		<edge from-layer="619" from-port="0" to-layer="620" to-port="1" />
		<edge from-layer="620" from-port="2" to-layer="622" to-port="0" />
		<edge from-layer="621" from-port="0" to-layer="622" to-port="1" />
		<edge from-layer="622" from-port="2" to-layer="624" to-port="0" />
		<edge from-layer="622" from-port="2" to-layer="655" to-port="0" />
		<edge from-layer="622" from-port="2" to-layer="643" to-port="0" />
		<edge from-layer="623" from-port="0" to-layer="624" to-port="1" />
		<edge from-layer="624" from-port="2" to-layer="625" to-port="1" />
		<edge from-layer="625" from-port="2" to-layer="627" to-port="0" />
		<edge from-layer="626" from-port="0" to-layer="627" to-port="1" />
		<edge from-layer="627" from-port="2" to-layer="629" to-port="0" />
		<edge from-layer="628" from-port="0" to-layer="629" to-port="1" />
		<edge from-layer="629" from-port="2" to-layer="631" to-port="0" />
		<edge from-layer="629" from-port="2" to-layer="640" to-port="0" />
		<edge from-layer="630" from-port="0" to-layer="638" to-port="0" />
		<edge from-layer="631" from-port="1" to-layer="635" to-port="0" />
		<edge from-layer="632" from-port="0" to-layer="635" to-port="1" />
		<edge from-layer="633" from-port="0" to-layer="635" to-port="2" />
		<edge from-layer="634" from-port="0" to-layer="635" to-port="3" />
		<edge from-layer="635" from-port="4" to-layer="636" to-port="0" />
		<edge from-layer="636" from-port="1" to-layer="637" to-port="0" />
		<edge from-layer="637" from-port="1" to-layer="638" to-port="1" />
		<edge from-layer="638" from-port="2" to-layer="649" to-port="0" />
		<edge from-layer="638" from-port="2" to-layer="639" to-port="0" />
		<edge from-layer="639" from-port="1" to-layer="640" to-port="1" />
		<edge from-layer="640" from-port="2" to-layer="651" to-port="0" />
		<edge from-layer="641" from-port="0" to-layer="644" to-port="0" />
		<edge from-layer="642" from-port="0" to-layer="643" to-port="1" />
		<edge from-layer="643" from-port="2" to-layer="644" to-port="1" />
		<edge from-layer="644" from-port="2" to-layer="646" to-port="0" />
		<edge from-layer="645" from-port="0" to-layer="646" to-port="1" />
		<edge from-layer="646" from-port="2" to-layer="648" to-port="0" />
		<edge from-layer="647" from-port="0" to-layer="648" to-port="1" />
		<edge from-layer="648" from-port="2" to-layer="650" to-port="0" />
		<edge from-layer="649" from-port="1" to-layer="650" to-port="1" />
		<edge from-layer="650" from-port="2" to-layer="651" to-port="1" />
		<edge from-layer="651" from-port="2" to-layer="652" to-port="0" />
		<edge from-layer="652" from-port="1" to-layer="661" to-port="0" />
		<edge from-layer="653" from-port="0" to-layer="656" to-port="0" />
		<edge from-layer="654" from-port="0" to-layer="655" to-port="1" />
		<edge from-layer="655" from-port="2" to-layer="656" to-port="1" />
		<edge from-layer="656" from-port="2" to-layer="658" to-port="0" />
		<edge from-layer="657" from-port="0" to-layer="658" to-port="1" />
		<edge from-layer="658" from-port="2" to-layer="660" to-port="0" />
		<edge from-layer="659" from-port="0" to-layer="660" to-port="1" />
		<edge from-layer="660" from-port="2" to-layer="661" to-port="1" />
		<edge from-layer="661" from-port="2" to-layer="663" to-port="0" />
		<edge from-layer="662" from-port="0" to-layer="663" to-port="1" />
		<edge from-layer="663" from-port="2" to-layer="665" to-port="0" />
		<edge from-layer="664" from-port="0" to-layer="665" to-port="1" />
		<edge from-layer="665" from-port="2" to-layer="667" to-port="0" />
		<edge from-layer="666" from-port="0" to-layer="667" to-port="1" />
		<edge from-layer="667" from-port="2" to-layer="668" to-port="1" />
		<edge from-layer="668" from-port="2" to-layer="669" to-port="0" />
		<edge from-layer="669" from-port="2" to-layer="683" to-port="1" />
		<edge from-layer="669" from-port="2" to-layer="671" to-port="0" />
		<edge from-layer="670" from-port="0" to-layer="671" to-port="1" />
		<edge from-layer="671" from-port="2" to-layer="673" to-port="0" />
		<edge from-layer="672" from-port="0" to-layer="673" to-port="1" />
		<edge from-layer="673" from-port="2" to-layer="675" to-port="0" />
		<edge from-layer="674" from-port="0" to-layer="675" to-port="1" />
		<edge from-layer="675" from-port="2" to-layer="677" to-port="0" />
		<edge from-layer="676" from-port="0" to-layer="677" to-port="1" />
		<edge from-layer="677" from-port="2" to-layer="678" to-port="1" />
		<edge from-layer="678" from-port="2" to-layer="679" to-port="0" />
		<edge from-layer="679" from-port="1" to-layer="681" to-port="0" />
		<edge from-layer="680" from-port="0" to-layer="681" to-port="1" />
		<edge from-layer="681" from-port="2" to-layer="682" to-port="1" />
		<edge from-layer="682" from-port="2" to-layer="683" to-port="0" />
		<edge from-layer="683" from-port="2" to-layer="736" to-port="1" />
		<edge from-layer="683" from-port="2" to-layer="685" to-port="0" />
		<edge from-layer="684" from-port="0" to-layer="685" to-port="1" />
		<edge from-layer="685" from-port="2" to-layer="687" to-port="0" />
		<edge from-layer="686" from-port="0" to-layer="687" to-port="1" />
		<edge from-layer="687" from-port="2" to-layer="689" to-port="0" />
		<edge from-layer="688" from-port="0" to-layer="689" to-port="1" />
		<edge from-layer="689" from-port="2" to-layer="722" to-port="0" />
		<edge from-layer="689" from-port="2" to-layer="710" to-port="0" />
		<edge from-layer="689" from-port="2" to-layer="691" to-port="0" />
		<edge from-layer="690" from-port="0" to-layer="691" to-port="1" />
		<edge from-layer="691" from-port="2" to-layer="692" to-port="1" />
		<edge from-layer="692" from-port="2" to-layer="694" to-port="0" />
		<edge from-layer="693" from-port="0" to-layer="694" to-port="1" />
		<edge from-layer="694" from-port="2" to-layer="696" to-port="0" />
		<edge from-layer="695" from-port="0" to-layer="696" to-port="1" />
		<edge from-layer="696" from-port="2" to-layer="698" to-port="0" />
		<edge from-layer="696" from-port="2" to-layer="707" to-port="0" />
		<edge from-layer="697" from-port="0" to-layer="705" to-port="0" />
		<edge from-layer="698" from-port="1" to-layer="702" to-port="0" />
		<edge from-layer="699" from-port="0" to-layer="702" to-port="1" />
		<edge from-layer="700" from-port="0" to-layer="702" to-port="2" />
		<edge from-layer="701" from-port="0" to-layer="702" to-port="3" />
		<edge from-layer="702" from-port="4" to-layer="703" to-port="0" />
		<edge from-layer="703" from-port="1" to-layer="704" to-port="0" />
		<edge from-layer="704" from-port="1" to-layer="705" to-port="1" />
		<edge from-layer="705" from-port="2" to-layer="716" to-port="0" />
		<edge from-layer="705" from-port="2" to-layer="706" to-port="0" />
		<edge from-layer="706" from-port="1" to-layer="707" to-port="1" />
		<edge from-layer="707" from-port="2" to-layer="718" to-port="0" />
		<edge from-layer="708" from-port="0" to-layer="711" to-port="0" />
		<edge from-layer="709" from-port="0" to-layer="710" to-port="1" />
		<edge from-layer="710" from-port="2" to-layer="711" to-port="1" />
		<edge from-layer="711" from-port="2" to-layer="713" to-port="0" />
		<edge from-layer="712" from-port="0" to-layer="713" to-port="1" />
		<edge from-layer="713" from-port="2" to-layer="715" to-port="0" />
		<edge from-layer="714" from-port="0" to-layer="715" to-port="1" />
		<edge from-layer="715" from-port="2" to-layer="717" to-port="0" />
		<edge from-layer="716" from-port="1" to-layer="717" to-port="1" />
		<edge from-layer="717" from-port="2" to-layer="718" to-port="1" />
		<edge from-layer="718" from-port="2" to-layer="719" to-port="0" />
		<edge from-layer="719" from-port="1" to-layer="728" to-port="0" />
		<edge from-layer="720" from-port="0" to-layer="723" to-port="0" />
		<edge from-layer="721" from-port="0" to-layer="722" to-port="1" />
		<edge from-layer="722" from-port="2" to-layer="723" to-port="1" />
		<edge from-layer="723" from-port="2" to-layer="725" to-port="0" />
		<edge from-layer="724" from-port="0" to-layer="725" to-port="1" />
		<edge from-layer="725" from-port="2" to-layer="727" to-port="0" />
		<edge from-layer="726" from-port="0" to-layer="727" to-port="1" />
		<edge from-layer="727" from-port="2" to-layer="728" to-port="1" />
		<edge from-layer="728" from-port="2" to-layer="730" to-port="0" />
		<edge from-layer="729" from-port="0" to-layer="730" to-port="1" />
		<edge from-layer="730" from-port="2" to-layer="732" to-port="0" />
		<edge from-layer="731" from-port="0" to-layer="732" to-port="1" />
		<edge from-layer="732" from-port="2" to-layer="734" to-port="0" />
		<edge from-layer="733" from-port="0" to-layer="734" to-port="1" />
		<edge from-layer="734" from-port="2" to-layer="735" to-port="1" />
		<edge from-layer="735" from-port="2" to-layer="736" to-port="0" />
		<edge from-layer="736" from-port="2" to-layer="738" to-port="0" />
		<edge from-layer="736" from-port="2" to-layer="750" to-port="1" />
		<edge from-layer="737" from-port="0" to-layer="738" to-port="1" />
		<edge from-layer="738" from-port="2" to-layer="740" to-port="0" />
		<edge from-layer="739" from-port="0" to-layer="740" to-port="1" />
		<edge from-layer="740" from-port="2" to-layer="742" to-port="0" />
		<edge from-layer="741" from-port="0" to-layer="742" to-port="1" />
		<edge from-layer="742" from-port="2" to-layer="744" to-port="0" />
		<edge from-layer="743" from-port="0" to-layer="744" to-port="1" />
		<edge from-layer="744" from-port="2" to-layer="745" to-port="1" />
		<edge from-layer="745" from-port="2" to-layer="746" to-port="0" />
		<edge from-layer="746" from-port="1" to-layer="748" to-port="0" />
		<edge from-layer="747" from-port="0" to-layer="748" to-port="1" />
		<edge from-layer="748" from-port="2" to-layer="749" to-port="1" />
		<edge from-layer="749" from-port="2" to-layer="750" to-port="0" />
		<edge from-layer="750" from-port="2" to-layer="752" to-port="0" />
		<edge from-layer="750" from-port="2" to-layer="803" to-port="1" />
		<edge from-layer="751" from-port="0" to-layer="752" to-port="1" />
		<edge from-layer="752" from-port="2" to-layer="754" to-port="0" />
		<edge from-layer="753" from-port="0" to-layer="754" to-port="1" />
		<edge from-layer="754" from-port="2" to-layer="756" to-port="0" />
		<edge from-layer="755" from-port="0" to-layer="756" to-port="1" />
		<edge from-layer="756" from-port="2" to-layer="789" to-port="0" />
		<edge from-layer="756" from-port="2" to-layer="758" to-port="0" />
		<edge from-layer="756" from-port="2" to-layer="777" to-port="0" />
		<edge from-layer="757" from-port="0" to-layer="758" to-port="1" />
		<edge from-layer="758" from-port="2" to-layer="759" to-port="1" />
		<edge from-layer="759" from-port="2" to-layer="761" to-port="0" />
		<edge from-layer="760" from-port="0" to-layer="761" to-port="1" />
		<edge from-layer="761" from-port="2" to-layer="763" to-port="0" />
		<edge from-layer="762" from-port="0" to-layer="763" to-port="1" />
		<edge from-layer="763" from-port="2" to-layer="774" to-port="0" />
		<edge from-layer="763" from-port="2" to-layer="765" to-port="0" />
		<edge from-layer="764" from-port="0" to-layer="772" to-port="0" />
		<edge from-layer="765" from-port="1" to-layer="769" to-port="0" />
		<edge from-layer="766" from-port="0" to-layer="769" to-port="1" />
		<edge from-layer="767" from-port="0" to-layer="769" to-port="2" />
		<edge from-layer="768" from-port="0" to-layer="769" to-port="3" />
		<edge from-layer="769" from-port="4" to-layer="770" to-port="0" />
		<edge from-layer="770" from-port="1" to-layer="771" to-port="0" />
		<edge from-layer="771" from-port="1" to-layer="772" to-port="1" />
		<edge from-layer="772" from-port="2" to-layer="783" to-port="0" />
		<edge from-layer="772" from-port="2" to-layer="773" to-port="0" />
		<edge from-layer="773" from-port="1" to-layer="774" to-port="1" />
		<edge from-layer="774" from-port="2" to-layer="785" to-port="0" />
		<edge from-layer="775" from-port="0" to-layer="778" to-port="0" />
		<edge from-layer="776" from-port="0" to-layer="777" to-port="1" />
		<edge from-layer="777" from-port="2" to-layer="778" to-port="1" />
		<edge from-layer="778" from-port="2" to-layer="780" to-port="0" />
		<edge from-layer="779" from-port="0" to-layer="780" to-port="1" />
		<edge from-layer="780" from-port="2" to-layer="782" to-port="0" />
		<edge from-layer="781" from-port="0" to-layer="782" to-port="1" />
		<edge from-layer="782" from-port="2" to-layer="784" to-port="0" />
		<edge from-layer="783" from-port="1" to-layer="784" to-port="1" />
		<edge from-layer="784" from-port="2" to-layer="785" to-port="1" />
		<edge from-layer="785" from-port="2" to-layer="786" to-port="0" />
		<edge from-layer="786" from-port="1" to-layer="795" to-port="0" />
		<edge from-layer="787" from-port="0" to-layer="790" to-port="0" />
		<edge from-layer="788" from-port="0" to-layer="789" to-port="1" />
		<edge from-layer="789" from-port="2" to-layer="790" to-port="1" />
		<edge from-layer="790" from-port="2" to-layer="792" to-port="0" />
		<edge from-layer="791" from-port="0" to-layer="792" to-port="1" />
		<edge from-layer="792" from-port="2" to-layer="794" to-port="0" />
		<edge from-layer="793" from-port="0" to-layer="794" to-port="1" />
		<edge from-layer="794" from-port="2" to-layer="795" to-port="1" />
		<edge from-layer="795" from-port="2" to-layer="797" to-port="0" />
		<edge from-layer="796" from-port="0" to-layer="797" to-port="1" />
		<edge from-layer="797" from-port="2" to-layer="799" to-port="0" />
		<edge from-layer="798" from-port="0" to-layer="799" to-port="1" />
		<edge from-layer="799" from-port="2" to-layer="801" to-port="0" />
		<edge from-layer="800" from-port="0" to-layer="801" to-port="1" />
		<edge from-layer="801" from-port="2" to-layer="802" to-port="1" />
		<edge from-layer="802" from-port="2" to-layer="803" to-port="0" />
		<edge from-layer="803" from-port="2" to-layer="805" to-port="0" />
		<edge from-layer="803" from-port="2" to-layer="817" to-port="1" />
		<edge from-layer="804" from-port="0" to-layer="805" to-port="1" />
		<edge from-layer="805" from-port="2" to-layer="807" to-port="0" />
		<edge from-layer="806" from-port="0" to-layer="807" to-port="1" />
		<edge from-layer="807" from-port="2" to-layer="809" to-port="0" />
		<edge from-layer="808" from-port="0" to-layer="809" to-port="1" />
		<edge from-layer="809" from-port="2" to-layer="811" to-port="0" />
		<edge from-layer="810" from-port="0" to-layer="811" to-port="1" />
		<edge from-layer="811" from-port="2" to-layer="812" to-port="1" />
		<edge from-layer="812" from-port="2" to-layer="813" to-port="0" />
		<edge from-layer="813" from-port="1" to-layer="815" to-port="0" />
		<edge from-layer="814" from-port="0" to-layer="815" to-port="1" />
		<edge from-layer="815" from-port="2" to-layer="816" to-port="1" />
		<edge from-layer="816" from-port="2" to-layer="817" to-port="0" />
		<edge from-layer="817" from-port="2" to-layer="819" to-port="0" />
		<edge from-layer="817" from-port="2" to-layer="870" to-port="1" />
		<edge from-layer="818" from-port="0" to-layer="819" to-port="1" />
		<edge from-layer="819" from-port="2" to-layer="821" to-port="0" />
		<edge from-layer="820" from-port="0" to-layer="821" to-port="1" />
		<edge from-layer="821" from-port="2" to-layer="823" to-port="0" />
		<edge from-layer="822" from-port="0" to-layer="823" to-port="1" />
		<edge from-layer="823" from-port="2" to-layer="844" to-port="0" />
		<edge from-layer="823" from-port="2" to-layer="856" to-port="0" />
		<edge from-layer="823" from-port="2" to-layer="825" to-port="0" />
		<edge from-layer="824" from-port="0" to-layer="825" to-port="1" />
		<edge from-layer="825" from-port="2" to-layer="826" to-port="1" />
		<edge from-layer="826" from-port="2" to-layer="828" to-port="0" />
		<edge from-layer="827" from-port="0" to-layer="828" to-port="1" />
		<edge from-layer="828" from-port="2" to-layer="830" to-port="0" />
		<edge from-layer="829" from-port="0" to-layer="830" to-port="1" />
		<edge from-layer="830" from-port="2" to-layer="832" to-port="0" />
		<edge from-layer="830" from-port="2" to-layer="841" to-port="0" />
		<edge from-layer="831" from-port="0" to-layer="839" to-port="0" />
		<edge from-layer="832" from-port="1" to-layer="836" to-port="0" />
		<edge from-layer="833" from-port="0" to-layer="836" to-port="1" />
		<edge from-layer="834" from-port="0" to-layer="836" to-port="2" />
		<edge from-layer="835" from-port="0" to-layer="836" to-port="3" />
		<edge from-layer="836" from-port="4" to-layer="837" to-port="0" />
		<edge from-layer="837" from-port="1" to-layer="838" to-port="0" />
		<edge from-layer="838" from-port="1" to-layer="839" to-port="1" />
		<edge from-layer="839" from-port="2" to-layer="850" to-port="0" />
		<edge from-layer="839" from-port="2" to-layer="840" to-port="0" />
		<edge from-layer="840" from-port="1" to-layer="841" to-port="1" />
		<edge from-layer="841" from-port="2" to-layer="852" to-port="0" />
		<edge from-layer="842" from-port="0" to-layer="845" to-port="0" />
		<edge from-layer="843" from-port="0" to-layer="844" to-port="1" />
		<edge from-layer="844" from-port="2" to-layer="845" to-port="1" />
		<edge from-layer="845" from-port="2" to-layer="847" to-port="0" />
		<edge from-layer="846" from-port="0" to-layer="847" to-port="1" />
		<edge from-layer="847" from-port="2" to-layer="849" to-port="0" />
		<edge from-layer="848" from-port="0" to-layer="849" to-port="1" />
		<edge from-layer="849" from-port="2" to-layer="851" to-port="0" />
		<edge from-layer="850" from-port="1" to-layer="851" to-port="1" />
		<edge from-layer="851" from-port="2" to-layer="852" to-port="1" />
		<edge from-layer="852" from-port="2" to-layer="853" to-port="0" />
		<edge from-layer="853" from-port="1" to-layer="862" to-port="0" />
		<edge from-layer="854" from-port="0" to-layer="857" to-port="0" />
		<edge from-layer="855" from-port="0" to-layer="856" to-port="1" />
		<edge from-layer="856" from-port="2" to-layer="857" to-port="1" />
		<edge from-layer="857" from-port="2" to-layer="859" to-port="0" />
		<edge from-layer="858" from-port="0" to-layer="859" to-port="1" />
		<edge from-layer="859" from-port="2" to-layer="861" to-port="0" />
		<edge from-layer="860" from-port="0" to-layer="861" to-port="1" />
		<edge from-layer="861" from-port="2" to-layer="862" to-port="1" />
		<edge from-layer="862" from-port="2" to-layer="864" to-port="0" />
		<edge from-layer="863" from-port="0" to-layer="864" to-port="1" />
		<edge from-layer="864" from-port="2" to-layer="866" to-port="0" />
		<edge from-layer="865" from-port="0" to-layer="866" to-port="1" />
		<edge from-layer="866" from-port="2" to-layer="868" to-port="0" />
		<edge from-layer="867" from-port="0" to-layer="868" to-port="1" />
		<edge from-layer="868" from-port="2" to-layer="869" to-port="1" />
		<edge from-layer="869" from-port="2" to-layer="870" to-port="0" />
		<edge from-layer="870" from-port="2" to-layer="872" to-port="0" />
		<edge from-layer="870" from-port="2" to-layer="884" to-port="1" />
		<edge from-layer="871" from-port="0" to-layer="872" to-port="1" />
		<edge from-layer="872" from-port="2" to-layer="874" to-port="0" />
		<edge from-layer="873" from-port="0" to-layer="874" to-port="1" />
		<edge from-layer="874" from-port="2" to-layer="876" to-port="0" />
		<edge from-layer="875" from-port="0" to-layer="876" to-port="1" />
		<edge from-layer="876" from-port="2" to-layer="878" to-port="0" />
		<edge from-layer="877" from-port="0" to-layer="878" to-port="1" />
		<edge from-layer="878" from-port="2" to-layer="879" to-port="1" />
		<edge from-layer="879" from-port="2" to-layer="880" to-port="0" />
		<edge from-layer="880" from-port="1" to-layer="882" to-port="0" />
		<edge from-layer="881" from-port="0" to-layer="882" to-port="1" />
		<edge from-layer="882" from-port="2" to-layer="883" to-port="1" />
		<edge from-layer="883" from-port="2" to-layer="884" to-port="0" />
		<edge from-layer="884" from-port="2" to-layer="886" to-port="0" />
		<edge from-layer="885" from-port="0" to-layer="886" to-port="1" />
		<edge from-layer="886" from-port="2" to-layer="888" to-port="0" />
		<edge from-layer="887" from-port="0" to-layer="888" to-port="1" />
		<edge from-layer="888" from-port="2" to-layer="890" to-port="0" />
		<edge from-layer="889" from-port="0" to-layer="890" to-port="1" />
		<edge from-layer="890" from-port="2" to-layer="893" to-port="0" />
		<edge from-layer="890" from-port="2" to-layer="898" to-port="0" />
		<edge from-layer="891" from-port="0" to-layer="893" to-port="1" />
		<edge from-layer="892" from-port="0" to-layer="893" to-port="2" />
		<edge from-layer="893" from-port="3" to-layer="895" to-port="0" />
		<edge from-layer="894" from-port="0" to-layer="895" to-port="1" />
		<edge from-layer="895" from-port="2" to-layer="896" to-port="0" />
		<edge from-layer="896" from-port="1" to-layer="897" to-port="0" />
	</edges>
	<rt_info>
		<MO_version value="2022.3.0-9052-9752fafe8eb-releases/2022/3" />
		<Runtime_version value="2022.3.0-9052-9752fafe8eb-releases/2022/3" />
		<conversion_parameters>
			<framework value="onnx" />
			<input_model value="DIR/dino-vits16.onnx" />
			<input_shape value="[1,3,224,224]" />
			<model_name value="dino-vits16" />
			<output_dir value="/content/./openvino_model" />
		</conversion_parameters>
		<legacy_frontend value="False" />
	</rt_info>
</net>
